{"class_name": "Functional", "config": {"name": "functional_5", "layers": [{"class_name": "InputLayer", "config": {"batch_input_shape": [null, 4, 6000, 3], "dtype": "float32", "sparse": false, "ragged": false, "name": "input_1"}, "name": "input_1", "inbound_nodes": []}, {"class_name": "InputLayer", "config": {"batch_input_shape": [null, 4, 51, 601, 2], "dtype": "float32", "sparse": false, "ragged": false, "name": "input_2"}, "name": "input_2", "inbound_nodes": []}, {"class_name": "TensorFlowOpLayer", "config": {"name": "Reshape", "trainable": true, "dtype": "float32", "node_def": {"name": "Reshape", "op": "Reshape", "input": ["input_1", "Reshape/shape"], "attr": {"Tshape": {"type": "DT_INT32"}, "T": {"type": "DT_FLOAT"}}}, "constants": {"1": [256, 6000, 3]}}, "name": "tf_op_layer_Reshape", "inbound_nodes": [[["input_1", 0, 0, {}]]]}, {"class_name": "TensorFlowOpLayer", "config": {"name": "Reshape_1", "trainable": true, "dtype": "float32", "node_def": {"name": "Reshape_1", "op": "Reshape", "input": ["input_2", "Reshape_1/shape"], "attr": {"Tshape": {"type": "DT_INT32"}, "T": {"type": "DT_FLOAT"}}}, "constants": {"1": [256, 51, 601, 2]}}, "name": "tf_op_layer_Reshape_1", "inbound_nodes": [[["input_2", 0, 0, {}]]]}, {"class_name": "Functional", "config": {"name": "functional_3", "layers": [{"class_name": "InputLayer", "config": {"batch_input_shape": [null, 51, 601, 2], "dtype": "float32", "sparse": false, "ragged": false, "name": "spec_input"}, "name": "spec_input", "inbound_nodes": []}, {"class_name": "Conv2D", "config": {"name": "conv2d", "trainable": false, "dtype": "float32", "filters": 6, "kernel_size": [3, 3], "strides": [1, 1], "padding": "same", "data_format": "channels_last", "dilation_rate": [1, 1], "groups": 1, "activation": "linear", "use_bias": true, "kernel_initializer": {"class_name": "GlorotUniform", "config": {"seed": null}}, "bias_initializer": {"class_name": "Zeros", "config": {}}, "kernel_regularizer": null, "bias_regularizer": null, "activity_regularizer": null, "kernel_constraint": null, "bias_constraint": null}, "name": "conv2d", "inbound_nodes": [[["spec_input", 0, 0, {}]]]}, {"class_name": "BatchNormalization", "config": {"name": "batch_normalization", "trainable": false, "dtype": "float32", "axis": [3], "momentum": 0.99, "epsilon": 0.001, "center": true, "scale": true, "beta_initializer": {"class_name": "Zeros", "config": {}}, "gamma_initializer": {"class_name": "Ones", "config": {}}, "moving_mean_initializer": {"class_name": "Zeros", "config": {}}, "moving_variance_initializer": {"class_name": "Ones", "config": {}}, "beta_regularizer": null, "gamma_regularizer": null, "beta_constraint": null, "gamma_constraint": null}, "name": "batch_normalization", "inbound_nodes": [[["conv2d", 0, 0, {}]]]}, {"class_name": "Activation", "config": {"name": "activation", "trainable": false, "dtype": "float32", "activation": "relu"}, "name": "activation", "inbound_nodes": [[["batch_normalization", 0, 0, {}]]]}, {"class_name": "InputLayer", "config": {"batch_input_shape": [null, 6000, 3], "dtype": "float32", "sparse": false, "ragged": false, "name": "ts_input"}, "name": "ts_input", "inbound_nodes": []}, {"class_name": "Dropout", "config": {"name": "dropout", "trainable": false, "dtype": "float32", "rate": 0.1, "noise_shape": null, "seed": null}, "name": "dropout", "inbound_nodes": [[["activation", 0, 0, {}]]]}, {"class_name": "Conv1D", "config": {"name": "conv1d", "trainable": false, "dtype": "float32", "filters": 6, "kernel_size": [7], "strides": [1], "padding": "same", "data_format": "channels_last", "dilation_rate": [1], "groups": 1, "activation": "linear", "use_bias": true, "kernel_initializer": {"class_name": "HeUniform", "config": {"seed": null}}, "bias_initializer": {"class_name": "Zeros", "config": {}}, "kernel_regularizer": null, "bias_regularizer": null, "activity_regularizer": null, "kernel_constraint": null, "bias_constraint": null}, "name": "conv1d", "inbound_nodes": [[["ts_input", 0, 0, {}]]]}, {"class_name": "Add", "config": {"name": "add", "trainable": false, "dtype": "float32"}, "name": "add", "inbound_nodes": [[["dropout", 0, 0, {}], ["dropout", 0, 0, {}]]]}, {"class_name": "BatchNormalization", "config": {"name": "batch_normalization_30", "trainable": false, "dtype": "float32", "axis": [2], "momentum": 0.99, "epsilon": 0.001, "center": true, "scale": true, "beta_initializer": {"class_name": "Zeros", "config": {}}, "gamma_initializer": {"class_name": "Ones", "config": {}}, "moving_mean_initializer": {"class_name": "Zeros", "config": {}}, "moving_variance_initializer": {"class_name": "Ones", "config": {}}, "beta_regularizer": null, "gamma_regularizer": null, "beta_constraint": null, "gamma_constraint": null}, "name": "batch_normalization_30", "inbound_nodes": [[["conv1d", 0, 0, {}]]]}, {"class_name": "Conv2D", "config": {"name": "conv2d_2", "trainable": false, "dtype": "float32", "filters": 6, "kernel_size": [3, 3], "strides": [1, 1], "padding": "same", "data_format": "channels_last", "dilation_rate": [1, 1], "groups": 1, "activation": "linear", "use_bias": true, "kernel_initializer": {"class_name": "GlorotUniform", "config": {"seed": null}}, "bias_initializer": {"class_name": "Zeros", "config": {}}, "kernel_regularizer": null, "bias_regularizer": null, "activity_regularizer": null, "kernel_constraint": null, "bias_constraint": null}, "name": "conv2d_2", "inbound_nodes": [[["add", 0, 0, {}]]]}, {"class_name": "Activation", "config": {"name": "activation_30", "trainable": false, "dtype": "float32", "activation": "relu"}, "name": "activation_30", "inbound_nodes": [[["batch_normalization_30", 0, 0, {}]]]}, {"class_name": "BatchNormalization", "config": {"name": "batch_normalization_1", "trainable": false, "dtype": "float32", "axis": [3], "momentum": 0.99, "epsilon": 0.001, "center": true, "scale": true, "beta_initializer": {"class_name": "Zeros", "config": {}}, "gamma_initializer": {"class_name": "Ones", "config": {}}, "moving_mean_initializer": {"class_name": "Zeros", "config": {}}, "moving_variance_initializer": {"class_name": "Ones", "config": {}}, "beta_regularizer": null, "gamma_regularizer": null, "beta_constraint": null, "gamma_constraint": null}, "name": "batch_normalization_1", "inbound_nodes": [[["conv2d_2", 0, 0, {}]]]}, {"class_name": "Dropout", "config": {"name": "dropout_30", "trainable": false, "dtype": "float32", "rate": 0.1, "noise_shape": null, "seed": null}, "name": "dropout_30", "inbound_nodes": [[["activation_30", 0, 0, {}]]]}, {"class_name": "Activation", "config": {"name": "activation_1", "trainable": false, "dtype": "float32", "activation": "relu"}, "name": "activation_1", "inbound_nodes": [[["batch_normalization_1", 0, 0, {}]]]}, {"class_name": "Add", "config": {"name": "add_25", "trainable": false, "dtype": "float32"}, "name": "add_25", "inbound_nodes": [[["dropout_30", 0, 0, {}], ["dropout_30", 0, 0, {}]]]}, {"class_name": "Dropout", "config": {"name": "dropout_1", "trainable": false, "dtype": "float32", "rate": 0.1, "noise_shape": null, "seed": null}, "name": "dropout_1", "inbound_nodes": [[["activation_1", 0, 0, {}]]]}, {"class_name": "Conv1D", "config": {"name": "conv1d_2", "trainable": false, "dtype": "float32", "filters": 6, "kernel_size": [7], "strides": [1], "padding": "same", "data_format": "channels_last", "dilation_rate": [1], "groups": 1, "activation": "linear", "use_bias": true, "kernel_initializer": {"class_name": "HeUniform", "config": {"seed": null}}, "bias_initializer": {"class_name": "Zeros", "config": {}}, "kernel_regularizer": null, "bias_regularizer": null, "activity_regularizer": null, "kernel_constraint": null, "bias_constraint": null}, "name": "conv1d_2", "inbound_nodes": [[["add_25", 0, 0, {}]]]}, {"class_name": "Add", "config": {"name": "add_1", "trainable": false, "dtype": "float32"}, "name": "add_1", "inbound_nodes": [[["dropout_1", 0, 0, {}], ["dropout", 0, 0, {}]]]}, {"class_name": "BatchNormalization", "config": {"name": "batch_normalization_31", "trainable": false, "dtype": "float32", "axis": [2], "momentum": 0.99, "epsilon": 0.001, "center": true, "scale": true, "beta_initializer": {"class_name": "Zeros", "config": {}}, "gamma_initializer": {"class_name": "Ones", "config": {}}, "moving_mean_initializer": {"class_name": "Zeros", "config": {}}, "moving_variance_initializer": {"class_name": "Ones", "config": {}}, "beta_regularizer": null, "gamma_regularizer": null, "beta_constraint": null, "gamma_constraint": null}, "name": "batch_normalization_31", "inbound_nodes": [[["conv1d_2", 0, 0, {}]]]}, {"class_name": "Conv2D", "config": {"name": "conv2d_3", "trainable": false, "dtype": "float32", "filters": 6, "kernel_size": [3, 3], "strides": [1, 1], "padding": "same", "data_format": "channels_last", "dilation_rate": [1, 1], "groups": 1, "activation": "linear", "use_bias": true, "kernel_initializer": {"class_name": "GlorotUniform", "config": {"seed": null}}, "bias_initializer": {"class_name": "Zeros", "config": {}}, "kernel_regularizer": null, "bias_regularizer": null, "activity_regularizer": null, "kernel_constraint": null, "bias_constraint": null}, "name": "conv2d_3", "inbound_nodes": [[["add_1", 0, 0, {}]]]}, {"class_name": "Activation", "config": {"name": "activation_31", "trainable": false, "dtype": "float32", "activation": "relu"}, "name": "activation_31", "inbound_nodes": [[["batch_normalization_31", 0, 0, {}]]]}, {"class_name": "BatchNormalization", "config": {"name": "batch_normalization_2", "trainable": false, "dtype": "float32", "axis": [3], "momentum": 0.99, "epsilon": 0.001, "center": true, "scale": true, "beta_initializer": {"class_name": "Zeros", "config": {}}, "gamma_initializer": {"class_name": "Ones", "config": {}}, "moving_mean_initializer": {"class_name": "Zeros", "config": {}}, "moving_variance_initializer": {"class_name": "Ones", "config": {}}, "beta_regularizer": null, "gamma_regularizer": null, "beta_constraint": null, "gamma_constraint": null}, "name": "batch_normalization_2", "inbound_nodes": [[["conv2d_3", 0, 0, {}]]]}, {"class_name": "Dropout", "config": {"name": "dropout_31", "trainable": false, "dtype": "float32", "rate": 0.1, "noise_shape": null, "seed": null}, "name": "dropout_31", "inbound_nodes": [[["activation_31", 0, 0, {}]]]}, {"class_name": "Activation", "config": {"name": "activation_2", "trainable": false, "dtype": "float32", "activation": "relu"}, "name": "activation_2", "inbound_nodes": [[["batch_normalization_2", 0, 0, {}]]]}, {"class_name": "Add", "config": {"name": "add_26", "trainable": false, "dtype": "float32"}, "name": "add_26", "inbound_nodes": [[["dropout_31", 0, 0, {}], ["dropout_30", 0, 0, {}]]]}, {"class_name": "Dropout", "config": {"name": "dropout_2", "trainable": false, "dtype": "float32", "rate": 0.1, "noise_shape": null, "seed": null}, "name": "dropout_2", "inbound_nodes": [[["activation_2", 0, 0, {}]]]}, {"class_name": "Conv2D", "config": {"name": "conv2d_1", "trainable": false, "dtype": "float32", "filters": 6, "kernel_size": [1, 1], "strides": [1, 1], "padding": "valid", "data_format": "channels_last", "dilation_rate": [1, 1], "groups": 1, "activation": "linear", "use_bias": true, "kernel_initializer": {"class_name": "GlorotUniform", "config": {"seed": null}}, "bias_initializer": {"class_name": "Zeros", "config": {}}, "kernel_regularizer": null, "bias_regularizer": null, "activity_regularizer": null, "kernel_constraint": null, "bias_constraint": null}, "name": "conv2d_1", "inbound_nodes": [[["dropout", 0, 0, {}]]]}, {"class_name": "Conv1D", "config": {"name": "conv1d_3", "trainable": false, "dtype": "float32", "filters": 6, "kernel_size": [7], "strides": [1], "padding": "same", "data_format": "channels_last", "dilation_rate": [1], "groups": 1, "activation": "linear", "use_bias": true, "kernel_initializer": {"class_name": "HeUniform", "config": {"seed": null}}, "bias_initializer": {"class_name": "Zeros", "config": {}}, "kernel_regularizer": null, "bias_regularizer": null, "activity_regularizer": null, "kernel_constraint": null, "bias_constraint": null}, "name": "conv1d_3", "inbound_nodes": [[["add_26", 0, 0, {}]]]}, {"class_name": "Add", "config": {"name": "add_2", "trainable": false, "dtype": "float32"}, "name": "add_2", "inbound_nodes": [[["dropout_2", 0, 0, {}], ["conv2d_1", 0, 0, {}]]]}, {"class_name": "BatchNormalization", "config": {"name": "batch_normalization_32", "trainable": false, "dtype": "float32", "axis": [2], "momentum": 0.99, "epsilon": 0.001, "center": true, "scale": true, "beta_initializer": {"class_name": "Zeros", "config": {}}, "gamma_initializer": {"class_name": "Ones", "config": {}}, "moving_mean_initializer": {"class_name": "Zeros", "config": {}}, "moving_variance_initializer": {"class_name": "Ones", "config": {}}, "beta_regularizer": null, "gamma_regularizer": null, "beta_constraint": null, "gamma_constraint": null}, "name": "batch_normalization_32", "inbound_nodes": [[["conv1d_3", 0, 0, {}]]]}, {"class_name": "Conv2D", "config": {"name": "conv2d_4", "trainable": false, "dtype": "float32", "filters": 6, "kernel_size": [3, 3], "strides": [1, 1], "padding": "same", "data_format": "channels_last", "dilation_rate": [1, 1], "groups": 1, "activation": "linear", "use_bias": true, "kernel_initializer": {"class_name": "GlorotUniform", "config": {"seed": null}}, "bias_initializer": {"class_name": "Zeros", "config": {}}, "kernel_regularizer": null, "bias_regularizer": null, "activity_regularizer": null, "kernel_constraint": null, "bias_constraint": null}, "name": "conv2d_4", "inbound_nodes": [[["add_2", 0, 0, {}]]]}, {"class_name": "Activation", "config": {"name": "activation_32", "trainable": false, "dtype": "float32", "activation": "relu"}, "name": "activation_32", "inbound_nodes": [[["batch_normalization_32", 0, 0, {}]]]}, {"class_name": "BatchNormalization", "config": {"name": "batch_normalization_3", "trainable": false, "dtype": "float32", "axis": [3], "momentum": 0.99, "epsilon": 0.001, "center": true, "scale": true, "beta_initializer": {"class_name": "Zeros", "config": {}}, "gamma_initializer": {"class_name": "Ones", "config": {}}, "moving_mean_initializer": {"class_name": "Zeros", "config": {}}, "moving_variance_initializer": {"class_name": "Ones", "config": {}}, "beta_regularizer": null, "gamma_regularizer": null, "beta_constraint": null, "gamma_constraint": null}, "name": "batch_normalization_3", "inbound_nodes": [[["conv2d_4", 0, 0, {}]]]}, {"class_name": "Dropout", "config": {"name": "dropout_32", "trainable": false, "dtype": "float32", "rate": 0.1, "noise_shape": null, "seed": null}, "name": "dropout_32", "inbound_nodes": [[["activation_32", 0, 0, {}]]]}, {"class_name": "Conv1D", "config": {"name": "conv1d_1", "trainable": false, "dtype": "float32", "filters": 6, "kernel_size": [7], "strides": [1], "padding": "same", "data_format": "channels_last", "dilation_rate": [1], "groups": 1, "activation": "linear", "use_bias": true, "kernel_initializer": {"class_name": "HeUniform", "config": {"seed": null}}, "bias_initializer": {"class_name": "Zeros", "config": {}}, "kernel_regularizer": null, "bias_regularizer": null, "activity_regularizer": null, "kernel_constraint": null, "bias_constraint": null}, "name": "conv1d_1", "inbound_nodes": [[["dropout_30", 0, 0, {}]]]}, {"class_name": "Activation", "config": {"name": "activation_3", "trainable": false, "dtype": "float32", "activation": "relu"}, "name": "activation_3", "inbound_nodes": [[["batch_normalization_3", 0, 0, {}]]]}, {"class_name": "Add", "config": {"name": "ts_E0", "trainable": false, "dtype": "float32"}, "name": "ts_E0", "inbound_nodes": [[["dropout_32", 0, 0, {}], ["conv1d_1", 0, 0, {}]]]}, {"class_name": "Dropout", "config": {"name": "dropout_3", "trainable": false, "dtype": "float32", "rate": 0.1, "noise_shape": null, "seed": null}, "name": "dropout_3", "inbound_nodes": [[["activation_3", 0, 0, {}]]]}, {"class_name": "Conv1D", "config": {"name": "conv1d_4", "trainable": false, "dtype": "float32", "filters": 6, "kernel_size": [7], "strides": [1], "padding": "same", "data_format": "channels_last", "dilation_rate": [1], "groups": 1, "activation": "linear", "use_bias": true, "kernel_initializer": {"class_name": "HeUniform", "config": {"seed": null}}, "bias_initializer": {"class_name": "Zeros", "config": {}}, "kernel_regularizer": null, "bias_regularizer": null, "activity_regularizer": null, "kernel_constraint": null, "bias_constraint": null}, "name": "conv1d_4", "inbound_nodes": [[["ts_E0", 0, 0, {}]]]}, {"class_name": "Add", "config": {"name": "add_3", "trainable": false, "dtype": "float32"}, "name": "add_3", "inbound_nodes": [[["dropout_3", 0, 0, {}], ["dropout_3", 0, 0, {}]]]}, {"class_name": "BatchNormalization", "config": {"name": "batch_normalization_33", "trainable": false, "dtype": "float32", "axis": [2], "momentum": 0.99, "epsilon": 0.001, "center": true, "scale": true, "beta_initializer": {"class_name": "Zeros", "config": {}}, "gamma_initializer": {"class_name": "Ones", "config": {}}, "moving_mean_initializer": {"class_name": "Zeros", "config": {}}, "moving_variance_initializer": {"class_name": "Ones", "config": {}}, "beta_regularizer": null, "gamma_regularizer": null, "beta_constraint": null, "gamma_constraint": null}, "name": "batch_normalization_33", "inbound_nodes": [[["conv1d_4", 0, 0, {}]]]}, {"class_name": "Conv2D", "config": {"name": "conv2d_6", "trainable": false, "dtype": "float32", "filters": 6, "kernel_size": [3, 3], "strides": [1, 1], "padding": "same", "data_format": "channels_last", "dilation_rate": [1, 1], "groups": 1, "activation": "linear", "use_bias": true, "kernel_initializer": {"class_name": "GlorotUniform", "config": {"seed": null}}, "bias_initializer": {"class_name": "Zeros", "config": {}}, "kernel_regularizer": null, "bias_regularizer": null, "activity_regularizer": null, "kernel_constraint": null, "bias_constraint": null}, "name": "conv2d_6", "inbound_nodes": [[["add_3", 0, 0, {}]]]}, {"class_name": "Activation", "config": {"name": "activation_33", "trainable": false, "dtype": "float32", "activation": "relu"}, "name": "activation_33", "inbound_nodes": [[["batch_normalization_33", 0, 0, {}]]]}, {"class_name": "BatchNormalization", "config": {"name": "batch_normalization_4", "trainable": false, "dtype": "float32", "axis": [3], "momentum": 0.99, "epsilon": 0.001, "center": true, "scale": true, "beta_initializer": {"class_name": "Zeros", "config": {}}, "gamma_initializer": {"class_name": "Ones", "config": {}}, "moving_mean_initializer": {"class_name": "Zeros", "config": {}}, "moving_variance_initializer": {"class_name": "Ones", "config": {}}, "beta_regularizer": null, "gamma_regularizer": null, "beta_constraint": null, "gamma_constraint": null}, "name": "batch_normalization_4", "inbound_nodes": [[["conv2d_6", 0, 0, {}]]]}, {"class_name": "Dropout", "config": {"name": "dropout_33", "trainable": false, "dtype": "float32", "rate": 0.1, "noise_shape": null, "seed": null}, "name": "dropout_33", "inbound_nodes": [[["activation_33", 0, 0, {}]]]}, {"class_name": "Activation", "config": {"name": "activation_4", "trainable": false, "dtype": "float32", "activation": "relu"}, "name": "activation_4", "inbound_nodes": [[["batch_normalization_4", 0, 0, {}]]]}, {"class_name": "Add", "config": {"name": "add_27", "trainable": false, "dtype": "float32"}, "name": "add_27", "inbound_nodes": [[["dropout_33", 0, 0, {}], ["dropout_33", 0, 0, {}]]]}, {"class_name": "Dropout", "config": {"name": "dropout_4", "trainable": false, "dtype": "float32", "rate": 0.1, "noise_shape": null, "seed": null}, "name": "dropout_4", "inbound_nodes": [[["activation_4", 0, 0, {}]]]}, {"class_name": "Conv1D", "config": {"name": "conv1d_6", "trainable": false, "dtype": "float32", "filters": 6, "kernel_size": [7], "strides": [1], "padding": "same", "data_format": "channels_last", "dilation_rate": [1], "groups": 1, "activation": "linear", "use_bias": true, "kernel_initializer": {"class_name": "HeUniform", "config": {"seed": null}}, "bias_initializer": {"class_name": "Zeros", "config": {}}, "kernel_regularizer": null, "bias_regularizer": null, "activity_regularizer": null, "kernel_constraint": null, "bias_constraint": null}, "name": "conv1d_6", "inbound_nodes": [[["add_27", 0, 0, {}]]]}, {"class_name": "Add", "config": {"name": "add_4", "trainable": false, "dtype": "float32"}, "name": "add_4", "inbound_nodes": [[["dropout_4", 0, 0, {}], ["dropout_3", 0, 0, {}]]]}, {"class_name": "BatchNormalization", "config": {"name": "batch_normalization_34", "trainable": false, "dtype": "float32", "axis": [2], "momentum": 0.99, "epsilon": 0.001, "center": true, "scale": true, "beta_initializer": {"class_name": "Zeros", "config": {}}, "gamma_initializer": {"class_name": "Ones", "config": {}}, "moving_mean_initializer": {"class_name": "Zeros", "config": {}}, "moving_variance_initializer": {"class_name": "Ones", "config": {}}, "beta_regularizer": null, "gamma_regularizer": null, "beta_constraint": null, "gamma_constraint": null}, "name": "batch_normalization_34", "inbound_nodes": [[["conv1d_6", 0, 0, {}]]]}, {"class_name": "Conv2D", "config": {"name": "conv2d_7", "trainable": false, "dtype": "float32", "filters": 6, "kernel_size": [3, 3], "strides": [1, 1], "padding": "same", "data_format": "channels_last", "dilation_rate": [1, 1], "groups": 1, "activation": "linear", "use_bias": true, "kernel_initializer": {"class_name": "GlorotUniform", "config": {"seed": null}}, "bias_initializer": {"class_name": "Zeros", "config": {}}, "kernel_regularizer": null, "bias_regularizer": null, "activity_regularizer": null, "kernel_constraint": null, "bias_constraint": null}, "name": "conv2d_7", "inbound_nodes": [[["add_4", 0, 0, {}]]]}, {"class_name": "Activation", "config": {"name": "activation_34", "trainable": false, "dtype": "float32", "activation": "relu"}, "name": "activation_34", "inbound_nodes": [[["batch_normalization_34", 0, 0, {}]]]}, {"class_name": "BatchNormalization", "config": {"name": "batch_normalization_5", "trainable": false, "dtype": "float32", "axis": [3], "momentum": 0.99, "epsilon": 0.001, "center": true, "scale": true, "beta_initializer": {"class_name": "Zeros", "config": {}}, "gamma_initializer": {"class_name": "Ones", "config": {}}, "moving_mean_initializer": {"class_name": "Zeros", "config": {}}, "moving_variance_initializer": {"class_name": "Ones", "config": {}}, "beta_regularizer": null, "gamma_regularizer": null, "beta_constraint": null, "gamma_constraint": null}, "name": "batch_normalization_5", "inbound_nodes": [[["conv2d_7", 0, 0, {}]]]}, {"class_name": "Dropout", "config": {"name": "dropout_34", "trainable": false, "dtype": "float32", "rate": 0.1, "noise_shape": null, "seed": null}, "name": "dropout_34", "inbound_nodes": [[["activation_34", 0, 0, {}]]]}, {"class_name": "Activation", "config": {"name": "activation_5", "trainable": false, "dtype": "float32", "activation": "relu"}, "name": "activation_5", "inbound_nodes": [[["batch_normalization_5", 0, 0, {}]]]}, {"class_name": "Add", "config": {"name": "add_28", "trainable": false, "dtype": "float32"}, "name": "add_28", "inbound_nodes": [[["dropout_34", 0, 0, {}], ["dropout_33", 0, 0, {}]]]}, {"class_name": "Dropout", "config": {"name": "dropout_5", "trainable": false, "dtype": "float32", "rate": 0.1, "noise_shape": null, "seed": null}, "name": "dropout_5", "inbound_nodes": [[["activation_5", 0, 0, {}]]]}, {"class_name": "Conv2D", "config": {"name": "conv2d_5", "trainable": false, "dtype": "float32", "filters": 6, "kernel_size": [1, 1], "strides": [1, 1], "padding": "valid", "data_format": "channels_last", "dilation_rate": [1, 1], "groups": 1, "activation": "linear", "use_bias": true, "kernel_initializer": {"class_name": "GlorotUniform", "config": {"seed": null}}, "bias_initializer": {"class_name": "Zeros", "config": {}}, "kernel_regularizer": null, "bias_regularizer": null, "activity_regularizer": null, "kernel_constraint": null, "bias_constraint": null}, "name": "conv2d_5", "inbound_nodes": [[["dropout_3", 0, 0, {}]]]}, {"class_name": "Conv1D", "config": {"name": "conv1d_7", "trainable": false, "dtype": "float32", "filters": 6, "kernel_size": [7], "strides": [1], "padding": "same", "data_format": "channels_last", "dilation_rate": [1], "groups": 1, "activation": "linear", "use_bias": true, "kernel_initializer": {"class_name": "HeUniform", "config": {"seed": null}}, "bias_initializer": {"class_name": "Zeros", "config": {}}, "kernel_regularizer": null, "bias_regularizer": null, "activity_regularizer": null, "kernel_constraint": null, "bias_constraint": null}, "name": "conv1d_7", "inbound_nodes": [[["add_28", 0, 0, {}]]]}, {"class_name": "Add", "config": {"name": "spec_E0", "trainable": false, "dtype": "float32"}, "name": "spec_E0", "inbound_nodes": [[["dropout_5", 0, 0, {}], ["conv2d_5", 0, 0, {}]]]}, {"class_name": "BatchNormalization", "config": {"name": "batch_normalization_35", "trainable": false, "dtype": "float32", "axis": [2], "momentum": 0.99, "epsilon": 0.001, "center": true, "scale": true, "beta_initializer": {"class_name": "Zeros", "config": {}}, "gamma_initializer": {"class_name": "Ones", "config": {}}, "moving_mean_initializer": {"class_name": "Zeros", "config": {}}, "moving_variance_initializer": {"class_name": "Ones", "config": {}}, "beta_regularizer": null, "gamma_regularizer": null, "beta_constraint": null, "gamma_constraint": null}, "name": "batch_normalization_35", "inbound_nodes": [[["conv1d_7", 0, 0, {}]]]}, {"class_name": "Conv2D", "config": {"name": "conv2d_8", "trainable": false, "dtype": "float32", "filters": 12, "kernel_size": [3, 3], "strides": [1, 1], "padding": "same", "data_format": "channels_last", "dilation_rate": [1, 1], "groups": 1, "activation": "linear", "use_bias": true, "kernel_initializer": {"class_name": "GlorotUniform", "config": {"seed": null}}, "bias_initializer": {"class_name": "Zeros", "config": {}}, "kernel_regularizer": null, "bias_regularizer": null, "activity_regularizer": null, "kernel_constraint": null, "bias_constraint": null}, "name": "conv2d_8", "inbound_nodes": [[["spec_E0", 0, 0, {}]]]}, {"class_name": "Activation", "config": {"name": "activation_35", "trainable": false, "dtype": "float32", "activation": "relu"}, "name": "activation_35", "inbound_nodes": [[["batch_normalization_35", 0, 0, {}]]]}, {"class_name": "BatchNormalization", "config": {"name": "batch_normalization_6", "trainable": false, "dtype": "float32", "axis": [3], "momentum": 0.99, "epsilon": 0.001, "center": true, "scale": true, "beta_initializer": {"class_name": "Zeros", "config": {}}, "gamma_initializer": {"class_name": "Ones", "config": {}}, "moving_mean_initializer": {"class_name": "Zeros", "config": {}}, "moving_variance_initializer": {"class_name": "Ones", "config": {}}, "beta_regularizer": null, "gamma_regularizer": null, "beta_constraint": null, "gamma_constraint": null}, "name": "batch_normalization_6", "inbound_nodes": [[["conv2d_8", 0, 0, {}]]]}, {"class_name": "Dropout", "config": {"name": "dropout_35", "trainable": false, "dtype": "float32", "rate": 0.1, "noise_shape": null, "seed": null}, "name": "dropout_35", "inbound_nodes": [[["activation_35", 0, 0, {}]]]}, {"class_name": "Conv1D", "config": {"name": "conv1d_5", "trainable": false, "dtype": "float32", "filters": 6, "kernel_size": [7], "strides": [1], "padding": "same", "data_format": "channels_last", "dilation_rate": [1], "groups": 1, "activation": "linear", "use_bias": true, "kernel_initializer": {"class_name": "HeUniform", "config": {"seed": null}}, "bias_initializer": {"class_name": "Zeros", "config": {}}, "kernel_regularizer": null, "bias_regularizer": null, "activity_regularizer": null, "kernel_constraint": null, "bias_constraint": null}, "name": "conv1d_5", "inbound_nodes": [[["dropout_33", 0, 0, {}]]]}, {"class_name": "Activation", "config": {"name": "activation_6", "trainable": false, "dtype": "float32", "activation": "relu"}, "name": "activation_6", "inbound_nodes": [[["batch_normalization_6", 0, 0, {}]]]}, {"class_name": "Add", "config": {"name": "ts_exp_E0", "trainable": false, "dtype": "float32"}, "name": "ts_exp_E0", "inbound_nodes": [[["dropout_35", 0, 0, {}], ["conv1d_5", 0, 0, {}]]]}, {"class_name": "Dropout", "config": {"name": "dropout_6", "trainable": false, "dtype": "float32", "rate": 0.1, "noise_shape": null, "seed": null}, "name": "dropout_6", "inbound_nodes": [[["activation_6", 0, 0, {}]]]}, {"class_name": "Conv1D", "config": {"name": "conv1d_8", "trainable": false, "dtype": "float32", "filters": 12, "kernel_size": [7], "strides": [5], "padding": "same", "data_format": "channels_last", "dilation_rate": [1], "groups": 1, "activation": "linear", "use_bias": true, "kernel_initializer": {"class_name": "HeUniform", "config": {"seed": null}}, "bias_initializer": {"class_name": "Zeros", "config": {}}, "kernel_regularizer": null, "bias_regularizer": null, "activity_regularizer": null, "kernel_constraint": null, "bias_constraint": null}, "name": "conv1d_8", "inbound_nodes": [[["ts_exp_E0", 0, 0, {}]]]}, {"class_name": "Add", "config": {"name": "add_5", "trainable": false, "dtype": "float32"}, "name": "add_5", "inbound_nodes": [[["dropout_6", 0, 0, {}], ["dropout_6", 0, 0, {}]]]}, {"class_name": "BatchNormalization", "config": {"name": "batch_normalization_36", "trainable": false, "dtype": "float32", "axis": [2], "momentum": 0.99, "epsilon": 0.001, "center": true, "scale": true, "beta_initializer": {"class_name": "Zeros", "config": {}}, "gamma_initializer": {"class_name": "Ones", "config": {}}, "moving_mean_initializer": {"class_name": "Zeros", "config": {}}, "moving_variance_initializer": {"class_name": "Ones", "config": {}}, "beta_regularizer": null, "gamma_regularizer": null, "beta_constraint": null, "gamma_constraint": null}, "name": "batch_normalization_36", "inbound_nodes": [[["conv1d_8", 0, 0, {}]]]}, {"class_name": "Conv2D", "config": {"name": "conv2d_10", "trainable": false, "dtype": "float32", "filters": 12, "kernel_size": [3, 3], "strides": [1, 1], "padding": "same", "data_format": "channels_last", "dilation_rate": [1, 1], "groups": 1, "activation": "linear", "use_bias": true, "kernel_initializer": {"class_name": "GlorotUniform", "config": {"seed": null}}, "bias_initializer": {"class_name": "Zeros", "config": {}}, "kernel_regularizer": null, "bias_regularizer": null, "activity_regularizer": null, "kernel_constraint": null, "bias_constraint": null}, "name": "conv2d_10", "inbound_nodes": [[["add_5", 0, 0, {}]]]}, {"class_name": "Activation", "config": {"name": "activation_36", "trainable": false, "dtype": "float32", "activation": "relu"}, "name": "activation_36", "inbound_nodes": [[["batch_normalization_36", 0, 0, {}]]]}, {"class_name": "BatchNormalization", "config": {"name": "batch_normalization_7", "trainable": false, "dtype": "float32", "axis": [3], "momentum": 0.99, "epsilon": 0.001, "center": true, "scale": true, "beta_initializer": {"class_name": "Zeros", "config": {}}, "gamma_initializer": {"class_name": "Ones", "config": {}}, "moving_mean_initializer": {"class_name": "Zeros", "config": {}}, "moving_variance_initializer": {"class_name": "Ones", "config": {}}, "beta_regularizer": null, "gamma_regularizer": null, "beta_constraint": null, "gamma_constraint": null}, "name": "batch_normalization_7", "inbound_nodes": [[["conv2d_10", 0, 0, {}]]]}, {"class_name": "Dropout", "config": {"name": "dropout_36", "trainable": false, "dtype": "float32", "rate": 0.1, "noise_shape": null, "seed": null}, "name": "dropout_36", "inbound_nodes": [[["activation_36", 0, 0, {}]]]}, {"class_name": "Activation", "config": {"name": "activation_7", "trainable": false, "dtype": "float32", "activation": "relu"}, "name": "activation_7", "inbound_nodes": [[["batch_normalization_7", 0, 0, {}]]]}, {"class_name": "Add", "config": {"name": "add_29", "trainable": false, "dtype": "float32"}, "name": "add_29", "inbound_nodes": [[["dropout_36", 0, 0, {}], ["dropout_36", 0, 0, {}]]]}, {"class_name": "Dropout", "config": {"name": "dropout_7", "trainable": false, "dtype": "float32", "rate": 0.1, "noise_shape": null, "seed": null}, "name": "dropout_7", "inbound_nodes": [[["activation_7", 0, 0, {}]]]}, {"class_name": "Conv1D", "config": {"name": "conv1d_10", "trainable": false, "dtype": "float32", "filters": 12, "kernel_size": [7], "strides": [1], "padding": "same", "data_format": "channels_last", "dilation_rate": [1], "groups": 1, "activation": "linear", "use_bias": true, "kernel_initializer": {"class_name": "HeUniform", "config": {"seed": null}}, "bias_initializer": {"class_name": "Zeros", "config": {}}, "kernel_regularizer": null, "bias_regularizer": null, "activity_regularizer": null, "kernel_constraint": null, "bias_constraint": null}, "name": "conv1d_10", "inbound_nodes": [[["add_29", 0, 0, {}]]]}, {"class_name": "Add", "config": {"name": "add_6", "trainable": false, "dtype": "float32"}, "name": "add_6", "inbound_nodes": [[["dropout_7", 0, 0, {}], ["dropout_6", 0, 0, {}]]]}, {"class_name": "BatchNormalization", "config": {"name": "batch_normalization_37", "trainable": false, "dtype": "float32", "axis": [2], "momentum": 0.99, "epsilon": 0.001, "center": true, "scale": true, "beta_initializer": {"class_name": "Zeros", "config": {}}, "gamma_initializer": {"class_name": "Ones", "config": {}}, "moving_mean_initializer": {"class_name": "Zeros", "config": {}}, "moving_variance_initializer": {"class_name": "Ones", "config": {}}, "beta_regularizer": null, "gamma_regularizer": null, "beta_constraint": null, "gamma_constraint": null}, "name": "batch_normalization_37", "inbound_nodes": [[["conv1d_10", 0, 0, {}]]]}, {"class_name": "Conv2D", "config": {"name": "conv2d_11", "trainable": false, "dtype": "float32", "filters": 12, "kernel_size": [3, 3], "strides": [1, 1], "padding": "same", "data_format": "channels_last", "dilation_rate": [1, 1], "groups": 1, "activation": "linear", "use_bias": true, "kernel_initializer": {"class_name": "GlorotUniform", "config": {"seed": null}}, "bias_initializer": {"class_name": "Zeros", "config": {}}, "kernel_regularizer": null, "bias_regularizer": null, "activity_regularizer": null, "kernel_constraint": null, "bias_constraint": null}, "name": "conv2d_11", "inbound_nodes": [[["add_6", 0, 0, {}]]]}, {"class_name": "Activation", "config": {"name": "activation_37", "trainable": false, "dtype": "float32", "activation": "relu"}, "name": "activation_37", "inbound_nodes": [[["batch_normalization_37", 0, 0, {}]]]}, {"class_name": "BatchNormalization", "config": {"name": "batch_normalization_8", "trainable": false, "dtype": "float32", "axis": [3], "momentum": 0.99, "epsilon": 0.001, "center": true, "scale": true, "beta_initializer": {"class_name": "Zeros", "config": {}}, "gamma_initializer": {"class_name": "Ones", "config": {}}, "moving_mean_initializer": {"class_name": "Zeros", "config": {}}, "moving_variance_initializer": {"class_name": "Ones", "config": {}}, "beta_regularizer": null, "gamma_regularizer": null, "beta_constraint": null, "gamma_constraint": null}, "name": "batch_normalization_8", "inbound_nodes": [[["conv2d_11", 0, 0, {}]]]}, {"class_name": "Dropout", "config": {"name": "dropout_37", "trainable": false, "dtype": "float32", "rate": 0.1, "noise_shape": null, "seed": null}, "name": "dropout_37", "inbound_nodes": [[["activation_37", 0, 0, {}]]]}, {"class_name": "Activation", "config": {"name": "activation_8", "trainable": false, "dtype": "float32", "activation": "relu"}, "name": "activation_8", "inbound_nodes": [[["batch_normalization_8", 0, 0, {}]]]}, {"class_name": "Add", "config": {"name": "add_30", "trainable": false, "dtype": "float32"}, "name": "add_30", "inbound_nodes": [[["dropout_37", 0, 0, {}], ["dropout_36", 0, 0, {}]]]}, {"class_name": "Dropout", "config": {"name": "dropout_8", "trainable": false, "dtype": "float32", "rate": 0.1, "noise_shape": null, "seed": null}, "name": "dropout_8", "inbound_nodes": [[["activation_8", 0, 0, {}]]]}, {"class_name": "Conv2D", "config": {"name": "conv2d_9", "trainable": false, "dtype": "float32", "filters": 12, "kernel_size": [1, 1], "strides": [1, 1], "padding": "valid", "data_format": "channels_last", "dilation_rate": [1, 1], "groups": 1, "activation": "linear", "use_bias": true, "kernel_initializer": {"class_name": "GlorotUniform", "config": {"seed": null}}, "bias_initializer": {"class_name": "Zeros", "config": {}}, "kernel_regularizer": null, "bias_regularizer": null, "activity_regularizer": null, "kernel_constraint": null, "bias_constraint": null}, "name": "conv2d_9", "inbound_nodes": [[["dropout_6", 0, 0, {}]]]}, {"class_name": "Conv1D", "config": {"name": "conv1d_11", "trainable": false, "dtype": "float32", "filters": 12, "kernel_size": [7], "strides": [1], "padding": "same", "data_format": "channels_last", "dilation_rate": [1], "groups": 1, "activation": "linear", "use_bias": true, "kernel_initializer": {"class_name": "HeUniform", "config": {"seed": null}}, "bias_initializer": {"class_name": "Zeros", "config": {}}, "kernel_regularizer": null, "bias_regularizer": null, "activity_regularizer": null, "kernel_constraint": null, "bias_constraint": null}, "name": "conv1d_11", "inbound_nodes": [[["add_30", 0, 0, {}]]]}, {"class_name": "Add", "config": {"name": "add_7", "trainable": false, "dtype": "float32"}, "name": "add_7", "inbound_nodes": [[["dropout_8", 0, 0, {}], ["conv2d_9", 0, 0, {}]]]}, {"class_name": "BatchNormalization", "config": {"name": "batch_normalization_38", "trainable": false, "dtype": "float32", "axis": [2], "momentum": 0.99, "epsilon": 0.001, "center": true, "scale": true, "beta_initializer": {"class_name": "Zeros", "config": {}}, "gamma_initializer": {"class_name": "Ones", "config": {}}, "moving_mean_initializer": {"class_name": "Zeros", "config": {}}, "moving_variance_initializer": {"class_name": "Ones", "config": {}}, "beta_regularizer": null, "gamma_regularizer": null, "beta_constraint": null, "gamma_constraint": null}, "name": "batch_normalization_38", "inbound_nodes": [[["conv1d_11", 0, 0, {}]]]}, {"class_name": "Conv2D", "config": {"name": "conv2d_12", "trainable": false, "dtype": "float32", "filters": 12, "kernel_size": [3, 3], "strides": [3, 3], "padding": "same", "data_format": "channels_last", "dilation_rate": [1, 1], "groups": 1, "activation": "linear", "use_bias": true, "kernel_initializer": {"class_name": "GlorotUniform", "config": {"seed": null}}, "bias_initializer": {"class_name": "Zeros", "config": {}}, "kernel_regularizer": null, "bias_regularizer": null, "activity_regularizer": null, "kernel_constraint": null, "bias_constraint": null}, "name": "conv2d_12", "inbound_nodes": [[["add_7", 0, 0, {}]]]}, {"class_name": "Activation", "config": {"name": "activation_38", "trainable": false, "dtype": "float32", "activation": "relu"}, "name": "activation_38", "inbound_nodes": [[["batch_normalization_38", 0, 0, {}]]]}, {"class_name": "BatchNormalization", "config": {"name": "batch_normalization_9", "trainable": false, "dtype": "float32", "axis": [3], "momentum": 0.99, "epsilon": 0.001, "center": true, "scale": true, "beta_initializer": {"class_name": "Zeros", "config": {}}, "gamma_initializer": {"class_name": "Ones", "config": {}}, "moving_mean_initializer": {"class_name": "Zeros", "config": {}}, "moving_variance_initializer": {"class_name": "Ones", "config": {}}, "beta_regularizer": null, "gamma_regularizer": null, "beta_constraint": null, "gamma_constraint": null}, "name": "batch_normalization_9", "inbound_nodes": [[["conv2d_12", 0, 0, {}]]]}, {"class_name": "Dropout", "config": {"name": "dropout_38", "trainable": false, "dtype": "float32", "rate": 0.1, "noise_shape": null, "seed": null}, "name": "dropout_38", "inbound_nodes": [[["activation_38", 0, 0, {}]]]}, {"class_name": "Conv1D", "config": {"name": "conv1d_9", "trainable": false, "dtype": "float32", "filters": 12, "kernel_size": [7], "strides": [1], "padding": "same", "data_format": "channels_last", "dilation_rate": [1], "groups": 1, "activation": "linear", "use_bias": true, "kernel_initializer": {"class_name": "HeUniform", "config": {"seed": null}}, "bias_initializer": {"class_name": "Zeros", "config": {}}, "kernel_regularizer": null, "bias_regularizer": null, "activity_regularizer": null, "kernel_constraint": null, "bias_constraint": null}, "name": "conv1d_9", "inbound_nodes": [[["dropout_36", 0, 0, {}]]]}, {"class_name": "Activation", "config": {"name": "activation_9", "trainable": false, "dtype": "float32", "activation": "relu"}, "name": "activation_9", "inbound_nodes": [[["batch_normalization_9", 0, 0, {}]]]}, {"class_name": "Add", "config": {"name": "ts_E1", "trainable": false, "dtype": "float32"}, "name": "ts_E1", "inbound_nodes": [[["dropout_38", 0, 0, {}], ["conv1d_9", 0, 0, {}]]]}, {"class_name": "Dropout", "config": {"name": "dropout_9", "trainable": false, "dtype": "float32", "rate": 0.1, "noise_shape": null, "seed": null}, "name": "dropout_9", "inbound_nodes": [[["activation_9", 0, 0, {}]]]}, {"class_name": "Conv1D", "config": {"name": "conv1d_12", "trainable": false, "dtype": "float32", "filters": 12, "kernel_size": [7], "strides": [1], "padding": "same", "data_format": "channels_last", "dilation_rate": [1], "groups": 1, "activation": "linear", "use_bias": true, "kernel_initializer": {"class_name": "HeUniform", "config": {"seed": null}}, "bias_initializer": {"class_name": "Zeros", "config": {}}, "kernel_regularizer": null, "bias_regularizer": null, "activity_regularizer": null, "kernel_constraint": null, "bias_constraint": null}, "name": "conv1d_12", "inbound_nodes": [[["ts_E1", 0, 0, {}]]]}, {"class_name": "Add", "config": {"name": "add_8", "trainable": false, "dtype": "float32"}, "name": "add_8", "inbound_nodes": [[["dropout_9", 0, 0, {}], ["dropout_9", 0, 0, {}]]]}, {"class_name": "BatchNormalization", "config": {"name": "batch_normalization_39", "trainable": false, "dtype": "float32", "axis": [2], "momentum": 0.99, "epsilon": 0.001, "center": true, "scale": true, "beta_initializer": {"class_name": "Zeros", "config": {}}, "gamma_initializer": {"class_name": "Ones", "config": {}}, "moving_mean_initializer": {"class_name": "Zeros", "config": {}}, "moving_variance_initializer": {"class_name": "Ones", "config": {}}, "beta_regularizer": null, "gamma_regularizer": null, "beta_constraint": null, "gamma_constraint": null}, "name": "batch_normalization_39", "inbound_nodes": [[["conv1d_12", 0, 0, {}]]]}, {"class_name": "Conv2D", "config": {"name": "conv2d_14", "trainable": false, "dtype": "float32", "filters": 12, "kernel_size": [3, 3], "strides": [1, 1], "padding": "same", "data_format": "channels_last", "dilation_rate": [1, 1], "groups": 1, "activation": "linear", "use_bias": true, "kernel_initializer": {"class_name": "GlorotUniform", "config": {"seed": null}}, "bias_initializer": {"class_name": "Zeros", "config": {}}, "kernel_regularizer": null, "bias_regularizer": null, "activity_regularizer": null, "kernel_constraint": null, "bias_constraint": null}, "name": "conv2d_14", "inbound_nodes": [[["add_8", 0, 0, {}]]]}, {"class_name": "Activation", "config": {"name": "activation_39", "trainable": false, "dtype": "float32", "activation": "relu"}, "name": "activation_39", "inbound_nodes": [[["batch_normalization_39", 0, 0, {}]]]}, {"class_name": "BatchNormalization", "config": {"name": "batch_normalization_10", "trainable": false, "dtype": "float32", "axis": [3], "momentum": 0.99, "epsilon": 0.001, "center": true, "scale": true, "beta_initializer": {"class_name": "Zeros", "config": {}}, "gamma_initializer": {"class_name": "Ones", "config": {}}, "moving_mean_initializer": {"class_name": "Zeros", "config": {}}, "moving_variance_initializer": {"class_name": "Ones", "config": {}}, "beta_regularizer": null, "gamma_regularizer": null, "beta_constraint": null, "gamma_constraint": null}, "name": "batch_normalization_10", "inbound_nodes": [[["conv2d_14", 0, 0, {}]]]}, {"class_name": "Dropout", "config": {"name": "dropout_39", "trainable": false, "dtype": "float32", "rate": 0.1, "noise_shape": null, "seed": null}, "name": "dropout_39", "inbound_nodes": [[["activation_39", 0, 0, {}]]]}, {"class_name": "Activation", "config": {"name": "activation_10", "trainable": false, "dtype": "float32", "activation": "relu"}, "name": "activation_10", "inbound_nodes": [[["batch_normalization_10", 0, 0, {}]]]}, {"class_name": "Add", "config": {"name": "add_31", "trainable": false, "dtype": "float32"}, "name": "add_31", "inbound_nodes": [[["dropout_39", 0, 0, {}], ["dropout_39", 0, 0, {}]]]}, {"class_name": "Dropout", "config": {"name": "dropout_10", "trainable": false, "dtype": "float32", "rate": 0.1, "noise_shape": null, "seed": null}, "name": "dropout_10", "inbound_nodes": [[["activation_10", 0, 0, {}]]]}, {"class_name": "Conv1D", "config": {"name": "conv1d_14", "trainable": false, "dtype": "float32", "filters": 12, "kernel_size": [7], "strides": [1], "padding": "same", "data_format": "channels_last", "dilation_rate": [1], "groups": 1, "activation": "linear", "use_bias": true, "kernel_initializer": {"class_name": "HeUniform", "config": {"seed": null}}, "bias_initializer": {"class_name": "Zeros", "config": {}}, "kernel_regularizer": null, "bias_regularizer": null, "activity_regularizer": null, "kernel_constraint": null, "bias_constraint": null}, "name": "conv1d_14", "inbound_nodes": [[["add_31", 0, 0, {}]]]}, {"class_name": "Add", "config": {"name": "add_9", "trainable": false, "dtype": "float32"}, "name": "add_9", "inbound_nodes": [[["dropout_10", 0, 0, {}], ["dropout_9", 0, 0, {}]]]}, {"class_name": "BatchNormalization", "config": {"name": "batch_normalization_40", "trainable": false, "dtype": "float32", "axis": [2], "momentum": 0.99, "epsilon": 0.001, "center": true, "scale": true, "beta_initializer": {"class_name": "Zeros", "config": {}}, "gamma_initializer": {"class_name": "Ones", "config": {}}, "moving_mean_initializer": {"class_name": "Zeros", "config": {}}, "moving_variance_initializer": {"class_name": "Ones", "config": {}}, "beta_regularizer": null, "gamma_regularizer": null, "beta_constraint": null, "gamma_constraint": null}, "name": "batch_normalization_40", "inbound_nodes": [[["conv1d_14", 0, 0, {}]]]}, {"class_name": "Conv2D", "config": {"name": "conv2d_15", "trainable": false, "dtype": "float32", "filters": 12, "kernel_size": [3, 3], "strides": [1, 1], "padding": "same", "data_format": "channels_last", "dilation_rate": [1, 1], "groups": 1, "activation": "linear", "use_bias": true, "kernel_initializer": {"class_name": "GlorotUniform", "config": {"seed": null}}, "bias_initializer": {"class_name": "Zeros", "config": {}}, "kernel_regularizer": null, "bias_regularizer": null, "activity_regularizer": null, "kernel_constraint": null, "bias_constraint": null}, "name": "conv2d_15", "inbound_nodes": [[["add_9", 0, 0, {}]]]}, {"class_name": "Activation", "config": {"name": "activation_40", "trainable": false, "dtype": "float32", "activation": "relu"}, "name": "activation_40", "inbound_nodes": [[["batch_normalization_40", 0, 0, {}]]]}, {"class_name": "BatchNormalization", "config": {"name": "batch_normalization_11", "trainable": false, "dtype": "float32", "axis": [3], "momentum": 0.99, "epsilon": 0.001, "center": true, "scale": true, "beta_initializer": {"class_name": "Zeros", "config": {}}, "gamma_initializer": {"class_name": "Ones", "config": {}}, "moving_mean_initializer": {"class_name": "Zeros", "config": {}}, "moving_variance_initializer": {"class_name": "Ones", "config": {}}, "beta_regularizer": null, "gamma_regularizer": null, "beta_constraint": null, "gamma_constraint": null}, "name": "batch_normalization_11", "inbound_nodes": [[["conv2d_15", 0, 0, {}]]]}, {"class_name": "Dropout", "config": {"name": "dropout_40", "trainable": false, "dtype": "float32", "rate": 0.1, "noise_shape": null, "seed": null}, "name": "dropout_40", "inbound_nodes": [[["activation_40", 0, 0, {}]]]}, {"class_name": "Activation", "config": {"name": "activation_11", "trainable": false, "dtype": "float32", "activation": "relu"}, "name": "activation_11", "inbound_nodes": [[["batch_normalization_11", 0, 0, {}]]]}, {"class_name": "Add", "config": {"name": "add_32", "trainable": false, "dtype": "float32"}, "name": "add_32", "inbound_nodes": [[["dropout_40", 0, 0, {}], ["dropout_39", 0, 0, {}]]]}, {"class_name": "Dropout", "config": {"name": "dropout_11", "trainable": false, "dtype": "float32", "rate": 0.1, "noise_shape": null, "seed": null}, "name": "dropout_11", "inbound_nodes": [[["activation_11", 0, 0, {}]]]}, {"class_name": "Conv2D", "config": {"name": "conv2d_13", "trainable": false, "dtype": "float32", "filters": 12, "kernel_size": [1, 1], "strides": [1, 1], "padding": "valid", "data_format": "channels_last", "dilation_rate": [1, 1], "groups": 1, "activation": "linear", "use_bias": true, "kernel_initializer": {"class_name": "GlorotUniform", "config": {"seed": null}}, "bias_initializer": {"class_name": "Zeros", "config": {}}, "kernel_regularizer": null, "bias_regularizer": null, "activity_regularizer": null, "kernel_constraint": null, "bias_constraint": null}, "name": "conv2d_13", "inbound_nodes": [[["dropout_9", 0, 0, {}]]]}, {"class_name": "Conv1D", "config": {"name": "conv1d_15", "trainable": false, "dtype": "float32", "filters": 12, "kernel_size": [7], "strides": [1], "padding": "same", "data_format": "channels_last", "dilation_rate": [1], "groups": 1, "activation": "linear", "use_bias": true, "kernel_initializer": {"class_name": "HeUniform", "config": {"seed": null}}, "bias_initializer": {"class_name": "Zeros", "config": {}}, "kernel_regularizer": null, "bias_regularizer": null, "activity_regularizer": null, "kernel_constraint": null, "bias_constraint": null}, "name": "conv1d_15", "inbound_nodes": [[["add_32", 0, 0, {}]]]}, {"class_name": "Add", "config": {"name": "spec_E1", "trainable": false, "dtype": "float32"}, "name": "spec_E1", "inbound_nodes": [[["dropout_11", 0, 0, {}], ["conv2d_13", 0, 0, {}]]]}, {"class_name": "BatchNormalization", "config": {"name": "batch_normalization_41", "trainable": false, "dtype": "float32", "axis": [2], "momentum": 0.99, "epsilon": 0.001, "center": true, "scale": true, "beta_initializer": {"class_name": "Zeros", "config": {}}, "gamma_initializer": {"class_name": "Ones", "config": {}}, "moving_mean_initializer": {"class_name": "Zeros", "config": {}}, "moving_variance_initializer": {"class_name": "Ones", "config": {}}, "beta_regularizer": null, "gamma_regularizer": null, "beta_constraint": null, "gamma_constraint": null}, "name": "batch_normalization_41", "inbound_nodes": [[["conv1d_15", 0, 0, {}]]]}, {"class_name": "Conv2D", "config": {"name": "conv2d_16", "trainable": false, "dtype": "float32", "filters": 18, "kernel_size": [3, 3], "strides": [1, 1], "padding": "same", "data_format": "channels_last", "dilation_rate": [1, 1], "groups": 1, "activation": "linear", "use_bias": true, "kernel_initializer": {"class_name": "GlorotUniform", "config": {"seed": null}}, "bias_initializer": {"class_name": "Zeros", "config": {}}, "kernel_regularizer": null, "bias_regularizer": null, "activity_regularizer": null, "kernel_constraint": null, "bias_constraint": null}, "name": "conv2d_16", "inbound_nodes": [[["spec_E1", 0, 0, {}]]]}, {"class_name": "Activation", "config": {"name": "activation_41", "trainable": false, "dtype": "float32", "activation": "relu"}, "name": "activation_41", "inbound_nodes": [[["batch_normalization_41", 0, 0, {}]]]}, {"class_name": "BatchNormalization", "config": {"name": "batch_normalization_12", "trainable": false, "dtype": "float32", "axis": [3], "momentum": 0.99, "epsilon": 0.001, "center": true, "scale": true, "beta_initializer": {"class_name": "Zeros", "config": {}}, "gamma_initializer": {"class_name": "Ones", "config": {}}, "moving_mean_initializer": {"class_name": "Zeros", "config": {}}, "moving_variance_initializer": {"class_name": "Ones", "config": {}}, "beta_regularizer": null, "gamma_regularizer": null, "beta_constraint": null, "gamma_constraint": null}, "name": "batch_normalization_12", "inbound_nodes": [[["conv2d_16", 0, 0, {}]]]}, {"class_name": "Dropout", "config": {"name": "dropout_41", "trainable": false, "dtype": "float32", "rate": 0.1, "noise_shape": null, "seed": null}, "name": "dropout_41", "inbound_nodes": [[["activation_41", 0, 0, {}]]]}, {"class_name": "Conv1D", "config": {"name": "conv1d_13", "trainable": false, "dtype": "float32", "filters": 12, "kernel_size": [7], "strides": [1], "padding": "same", "data_format": "channels_last", "dilation_rate": [1], "groups": 1, "activation": "linear", "use_bias": true, "kernel_initializer": {"class_name": "HeUniform", "config": {"seed": null}}, "bias_initializer": {"class_name": "Zeros", "config": {}}, "kernel_regularizer": null, "bias_regularizer": null, "activity_regularizer": null, "kernel_constraint": null, "bias_constraint": null}, "name": "conv1d_13", "inbound_nodes": [[["dropout_39", 0, 0, {}]]]}, {"class_name": "Activation", "config": {"name": "activation_12", "trainable": false, "dtype": "float32", "activation": "relu"}, "name": "activation_12", "inbound_nodes": [[["batch_normalization_12", 0, 0, {}]]]}, {"class_name": "Add", "config": {"name": "ts_exp_E1", "trainable": false, "dtype": "float32"}, "name": "ts_exp_E1", "inbound_nodes": [[["dropout_41", 0, 0, {}], ["conv1d_13", 0, 0, {}]]]}, {"class_name": "Dropout", "config": {"name": "dropout_12", "trainable": false, "dtype": "float32", "rate": 0.1, "noise_shape": null, "seed": null}, "name": "dropout_12", "inbound_nodes": [[["activation_12", 0, 0, {}]]]}, {"class_name": "Conv1D", "config": {"name": "conv1d_16", "trainable": false, "dtype": "float32", "filters": 18, "kernel_size": [7], "strides": [5], "padding": "same", "data_format": "channels_last", "dilation_rate": [1], "groups": 1, "activation": "linear", "use_bias": true, "kernel_initializer": {"class_name": "HeUniform", "config": {"seed": null}}, "bias_initializer": {"class_name": "Zeros", "config": {}}, "kernel_regularizer": null, "bias_regularizer": null, "activity_regularizer": null, "kernel_constraint": null, "bias_constraint": null}, "name": "conv1d_16", "inbound_nodes": [[["ts_exp_E1", 0, 0, {}]]]}, {"class_name": "Add", "config": {"name": "add_10", "trainable": false, "dtype": "float32"}, "name": "add_10", "inbound_nodes": [[["dropout_12", 0, 0, {}], ["dropout_12", 0, 0, {}]]]}, {"class_name": "BatchNormalization", "config": {"name": "batch_normalization_42", "trainable": false, "dtype": "float32", "axis": [2], "momentum": 0.99, "epsilon": 0.001, "center": true, "scale": true, "beta_initializer": {"class_name": "Zeros", "config": {}}, "gamma_initializer": {"class_name": "Ones", "config": {}}, "moving_mean_initializer": {"class_name": "Zeros", "config": {}}, "moving_variance_initializer": {"class_name": "Ones", "config": {}}, "beta_regularizer": null, "gamma_regularizer": null, "beta_constraint": null, "gamma_constraint": null}, "name": "batch_normalization_42", "inbound_nodes": [[["conv1d_16", 0, 0, {}]]]}, {"class_name": "Conv2D", "config": {"name": "conv2d_18", "trainable": false, "dtype": "float32", "filters": 18, "kernel_size": [3, 3], "strides": [1, 1], "padding": "same", "data_format": "channels_last", "dilation_rate": [1, 1], "groups": 1, "activation": "linear", "use_bias": true, "kernel_initializer": {"class_name": "GlorotUniform", "config": {"seed": null}}, "bias_initializer": {"class_name": "Zeros", "config": {}}, "kernel_regularizer": null, "bias_regularizer": null, "activity_regularizer": null, "kernel_constraint": null, "bias_constraint": null}, "name": "conv2d_18", "inbound_nodes": [[["add_10", 0, 0, {}]]]}, {"class_name": "Activation", "config": {"name": "activation_42", "trainable": false, "dtype": "float32", "activation": "relu"}, "name": "activation_42", "inbound_nodes": [[["batch_normalization_42", 0, 0, {}]]]}, {"class_name": "BatchNormalization", "config": {"name": "batch_normalization_13", "trainable": false, "dtype": "float32", "axis": [3], "momentum": 0.99, "epsilon": 0.001, "center": true, "scale": true, "beta_initializer": {"class_name": "Zeros", "config": {}}, "gamma_initializer": {"class_name": "Ones", "config": {}}, "moving_mean_initializer": {"class_name": "Zeros", "config": {}}, "moving_variance_initializer": {"class_name": "Ones", "config": {}}, "beta_regularizer": null, "gamma_regularizer": null, "beta_constraint": null, "gamma_constraint": null}, "name": "batch_normalization_13", "inbound_nodes": [[["conv2d_18", 0, 0, {}]]]}, {"class_name": "Dropout", "config": {"name": "dropout_42", "trainable": false, "dtype": "float32", "rate": 0.1, "noise_shape": null, "seed": null}, "name": "dropout_42", "inbound_nodes": [[["activation_42", 0, 0, {}]]]}, {"class_name": "Activation", "config": {"name": "activation_13", "trainable": false, "dtype": "float32", "activation": "relu"}, "name": "activation_13", "inbound_nodes": [[["batch_normalization_13", 0, 0, {}]]]}, {"class_name": "Add", "config": {"name": "add_33", "trainable": false, "dtype": "float32"}, "name": "add_33", "inbound_nodes": [[["dropout_42", 0, 0, {}], ["dropout_42", 0, 0, {}]]]}, {"class_name": "Dropout", "config": {"name": "dropout_13", "trainable": false, "dtype": "float32", "rate": 0.1, "noise_shape": null, "seed": null}, "name": "dropout_13", "inbound_nodes": [[["activation_13", 0, 0, {}]]]}, {"class_name": "Conv1D", "config": {"name": "conv1d_18", "trainable": false, "dtype": "float32", "filters": 18, "kernel_size": [7], "strides": [1], "padding": "same", "data_format": "channels_last", "dilation_rate": [1], "groups": 1, "activation": "linear", "use_bias": true, "kernel_initializer": {"class_name": "HeUniform", "config": {"seed": null}}, "bias_initializer": {"class_name": "Zeros", "config": {}}, "kernel_regularizer": null, "bias_regularizer": null, "activity_regularizer": null, "kernel_constraint": null, "bias_constraint": null}, "name": "conv1d_18", "inbound_nodes": [[["add_33", 0, 0, {}]]]}, {"class_name": "Add", "config": {"name": "add_11", "trainable": false, "dtype": "float32"}, "name": "add_11", "inbound_nodes": [[["dropout_13", 0, 0, {}], ["dropout_12", 0, 0, {}]]]}, {"class_name": "BatchNormalization", "config": {"name": "batch_normalization_43", "trainable": false, "dtype": "float32", "axis": [2], "momentum": 0.99, "epsilon": 0.001, "center": true, "scale": true, "beta_initializer": {"class_name": "Zeros", "config": {}}, "gamma_initializer": {"class_name": "Ones", "config": {}}, "moving_mean_initializer": {"class_name": "Zeros", "config": {}}, "moving_variance_initializer": {"class_name": "Ones", "config": {}}, "beta_regularizer": null, "gamma_regularizer": null, "beta_constraint": null, "gamma_constraint": null}, "name": "batch_normalization_43", "inbound_nodes": [[["conv1d_18", 0, 0, {}]]]}, {"class_name": "Conv2D", "config": {"name": "conv2d_19", "trainable": false, "dtype": "float32", "filters": 18, "kernel_size": [3, 3], "strides": [1, 1], "padding": "same", "data_format": "channels_last", "dilation_rate": [1, 1], "groups": 1, "activation": "linear", "use_bias": true, "kernel_initializer": {"class_name": "GlorotUniform", "config": {"seed": null}}, "bias_initializer": {"class_name": "Zeros", "config": {}}, "kernel_regularizer": null, "bias_regularizer": null, "activity_regularizer": null, "kernel_constraint": null, "bias_constraint": null}, "name": "conv2d_19", "inbound_nodes": [[["add_11", 0, 0, {}]]]}, {"class_name": "Activation", "config": {"name": "activation_43", "trainable": false, "dtype": "float32", "activation": "relu"}, "name": "activation_43", "inbound_nodes": [[["batch_normalization_43", 0, 0, {}]]]}, {"class_name": "BatchNormalization", "config": {"name": "batch_normalization_14", "trainable": false, "dtype": "float32", "axis": [3], "momentum": 0.99, "epsilon": 0.001, "center": true, "scale": true, "beta_initializer": {"class_name": "Zeros", "config": {}}, "gamma_initializer": {"class_name": "Ones", "config": {}}, "moving_mean_initializer": {"class_name": "Zeros", "config": {}}, "moving_variance_initializer": {"class_name": "Ones", "config": {}}, "beta_regularizer": null, "gamma_regularizer": null, "beta_constraint": null, "gamma_constraint": null}, "name": "batch_normalization_14", "inbound_nodes": [[["conv2d_19", 0, 0, {}]]]}, {"class_name": "Dropout", "config": {"name": "dropout_43", "trainable": false, "dtype": "float32", "rate": 0.1, "noise_shape": null, "seed": null}, "name": "dropout_43", "inbound_nodes": [[["activation_43", 0, 0, {}]]]}, {"class_name": "Activation", "config": {"name": "activation_14", "trainable": false, "dtype": "float32", "activation": "relu"}, "name": "activation_14", "inbound_nodes": [[["batch_normalization_14", 0, 0, {}]]]}, {"class_name": "Add", "config": {"name": "add_34", "trainable": false, "dtype": "float32"}, "name": "add_34", "inbound_nodes": [[["dropout_43", 0, 0, {}], ["dropout_42", 0, 0, {}]]]}, {"class_name": "Dropout", "config": {"name": "dropout_14", "trainable": false, "dtype": "float32", "rate": 0.1, "noise_shape": null, "seed": null}, "name": "dropout_14", "inbound_nodes": [[["activation_14", 0, 0, {}]]]}, {"class_name": "Conv2D", "config": {"name": "conv2d_17", "trainable": false, "dtype": "float32", "filters": 18, "kernel_size": [1, 1], "strides": [1, 1], "padding": "valid", "data_format": "channels_last", "dilation_rate": [1, 1], "groups": 1, "activation": "linear", "use_bias": true, "kernel_initializer": {"class_name": "GlorotUniform", "config": {"seed": null}}, "bias_initializer": {"class_name": "Zeros", "config": {}}, "kernel_regularizer": null, "bias_regularizer": null, "activity_regularizer": null, "kernel_constraint": null, "bias_constraint": null}, "name": "conv2d_17", "inbound_nodes": [[["dropout_12", 0, 0, {}]]]}, {"class_name": "Conv1D", "config": {"name": "conv1d_19", "trainable": false, "dtype": "float32", "filters": 18, "kernel_size": [7], "strides": [1], "padding": "same", "data_format": "channels_last", "dilation_rate": [1], "groups": 1, "activation": "linear", "use_bias": true, "kernel_initializer": {"class_name": "HeUniform", "config": {"seed": null}}, "bias_initializer": {"class_name": "Zeros", "config": {}}, "kernel_regularizer": null, "bias_regularizer": null, "activity_regularizer": null, "kernel_constraint": null, "bias_constraint": null}, "name": "conv1d_19", "inbound_nodes": [[["add_34", 0, 0, {}]]]}, {"class_name": "Add", "config": {"name": "add_12", "trainable": false, "dtype": "float32"}, "name": "add_12", "inbound_nodes": [[["dropout_14", 0, 0, {}], ["conv2d_17", 0, 0, {}]]]}, {"class_name": "BatchNormalization", "config": {"name": "batch_normalization_44", "trainable": false, "dtype": "float32", "axis": [2], "momentum": 0.99, "epsilon": 0.001, "center": true, "scale": true, "beta_initializer": {"class_name": "Zeros", "config": {}}, "gamma_initializer": {"class_name": "Ones", "config": {}}, "moving_mean_initializer": {"class_name": "Zeros", "config": {}}, "moving_variance_initializer": {"class_name": "Ones", "config": {}}, "beta_regularizer": null, "gamma_regularizer": null, "beta_constraint": null, "gamma_constraint": null}, "name": "batch_normalization_44", "inbound_nodes": [[["conv1d_19", 0, 0, {}]]]}, {"class_name": "Conv2D", "config": {"name": "conv2d_20", "trainable": false, "dtype": "float32", "filters": 18, "kernel_size": [3, 3], "strides": [3, 3], "padding": "same", "data_format": "channels_last", "dilation_rate": [1, 1], "groups": 1, "activation": "linear", "use_bias": true, "kernel_initializer": {"class_name": "GlorotUniform", "config": {"seed": null}}, "bias_initializer": {"class_name": "Zeros", "config": {}}, "kernel_regularizer": null, "bias_regularizer": null, "activity_regularizer": null, "kernel_constraint": null, "bias_constraint": null}, "name": "conv2d_20", "inbound_nodes": [[["add_12", 0, 0, {}]]]}, {"class_name": "Activation", "config": {"name": "activation_44", "trainable": false, "dtype": "float32", "activation": "relu"}, "name": "activation_44", "inbound_nodes": [[["batch_normalization_44", 0, 0, {}]]]}, {"class_name": "BatchNormalization", "config": {"name": "batch_normalization_15", "trainable": false, "dtype": "float32", "axis": [3], "momentum": 0.99, "epsilon": 0.001, "center": true, "scale": true, "beta_initializer": {"class_name": "Zeros", "config": {}}, "gamma_initializer": {"class_name": "Ones", "config": {}}, "moving_mean_initializer": {"class_name": "Zeros", "config": {}}, "moving_variance_initializer": {"class_name": "Ones", "config": {}}, "beta_regularizer": null, "gamma_regularizer": null, "beta_constraint": null, "gamma_constraint": null}, "name": "batch_normalization_15", "inbound_nodes": [[["conv2d_20", 0, 0, {}]]]}, {"class_name": "Dropout", "config": {"name": "dropout_44", "trainable": false, "dtype": "float32", "rate": 0.1, "noise_shape": null, "seed": null}, "name": "dropout_44", "inbound_nodes": [[["activation_44", 0, 0, {}]]]}, {"class_name": "Conv1D", "config": {"name": "conv1d_17", "trainable": false, "dtype": "float32", "filters": 18, "kernel_size": [7], "strides": [1], "padding": "same", "data_format": "channels_last", "dilation_rate": [1], "groups": 1, "activation": "linear", "use_bias": true, "kernel_initializer": {"class_name": "HeUniform", "config": {"seed": null}}, "bias_initializer": {"class_name": "Zeros", "config": {}}, "kernel_regularizer": null, "bias_regularizer": null, "activity_regularizer": null, "kernel_constraint": null, "bias_constraint": null}, "name": "conv1d_17", "inbound_nodes": [[["dropout_42", 0, 0, {}]]]}, {"class_name": "Activation", "config": {"name": "activation_15", "trainable": false, "dtype": "float32", "activation": "relu"}, "name": "activation_15", "inbound_nodes": [[["batch_normalization_15", 0, 0, {}]]]}, {"class_name": "Add", "config": {"name": "ts_E2", "trainable": false, "dtype": "float32"}, "name": "ts_E2", "inbound_nodes": [[["dropout_44", 0, 0, {}], ["conv1d_17", 0, 0, {}]]]}, {"class_name": "Dropout", "config": {"name": "dropout_15", "trainable": false, "dtype": "float32", "rate": 0.1, "noise_shape": null, "seed": null}, "name": "dropout_15", "inbound_nodes": [[["activation_15", 0, 0, {}]]]}, {"class_name": "Conv1D", "config": {"name": "conv1d_20", "trainable": false, "dtype": "float32", "filters": 18, "kernel_size": [7], "strides": [1], "padding": "same", "data_format": "channels_last", "dilation_rate": [1], "groups": 1, "activation": "linear", "use_bias": true, "kernel_initializer": {"class_name": "HeUniform", "config": {"seed": null}}, "bias_initializer": {"class_name": "Zeros", "config": {}}, "kernel_regularizer": null, "bias_regularizer": null, "activity_regularizer": null, "kernel_constraint": null, "bias_constraint": null}, "name": "conv1d_20", "inbound_nodes": [[["ts_E2", 0, 0, {}]]]}, {"class_name": "Add", "config": {"name": "add_13", "trainable": false, "dtype": "float32"}, "name": "add_13", "inbound_nodes": [[["dropout_15", 0, 0, {}], ["dropout_15", 0, 0, {}]]]}, {"class_name": "BatchNormalization", "config": {"name": "batch_normalization_45", "trainable": false, "dtype": "float32", "axis": [2], "momentum": 0.99, "epsilon": 0.001, "center": true, "scale": true, "beta_initializer": {"class_name": "Zeros", "config": {}}, "gamma_initializer": {"class_name": "Ones", "config": {}}, "moving_mean_initializer": {"class_name": "Zeros", "config": {}}, "moving_variance_initializer": {"class_name": "Ones", "config": {}}, "beta_regularizer": null, "gamma_regularizer": null, "beta_constraint": null, "gamma_constraint": null}, "name": "batch_normalization_45", "inbound_nodes": [[["conv1d_20", 0, 0, {}]]]}, {"class_name": "Conv2D", "config": {"name": "conv2d_22", "trainable": false, "dtype": "float32", "filters": 18, "kernel_size": [3, 3], "strides": [1, 1], "padding": "same", "data_format": "channels_last", "dilation_rate": [1, 1], "groups": 1, "activation": "linear", "use_bias": true, "kernel_initializer": {"class_name": "GlorotUniform", "config": {"seed": null}}, "bias_initializer": {"class_name": "Zeros", "config": {}}, "kernel_regularizer": null, "bias_regularizer": null, "activity_regularizer": null, "kernel_constraint": null, "bias_constraint": null}, "name": "conv2d_22", "inbound_nodes": [[["add_13", 0, 0, {}]]]}, {"class_name": "Activation", "config": {"name": "activation_45", "trainable": false, "dtype": "float32", "activation": "relu"}, "name": "activation_45", "inbound_nodes": [[["batch_normalization_45", 0, 0, {}]]]}, {"class_name": "BatchNormalization", "config": {"name": "batch_normalization_16", "trainable": false, "dtype": "float32", "axis": [3], "momentum": 0.99, "epsilon": 0.001, "center": true, "scale": true, "beta_initializer": {"class_name": "Zeros", "config": {}}, "gamma_initializer": {"class_name": "Ones", "config": {}}, "moving_mean_initializer": {"class_name": "Zeros", "config": {}}, "moving_variance_initializer": {"class_name": "Ones", "config": {}}, "beta_regularizer": null, "gamma_regularizer": null, "beta_constraint": null, "gamma_constraint": null}, "name": "batch_normalization_16", "inbound_nodes": [[["conv2d_22", 0, 0, {}]]]}, {"class_name": "Dropout", "config": {"name": "dropout_45", "trainable": false, "dtype": "float32", "rate": 0.1, "noise_shape": null, "seed": null}, "name": "dropout_45", "inbound_nodes": [[["activation_45", 0, 0, {}]]]}, {"class_name": "Activation", "config": {"name": "activation_16", "trainable": false, "dtype": "float32", "activation": "relu"}, "name": "activation_16", "inbound_nodes": [[["batch_normalization_16", 0, 0, {}]]]}, {"class_name": "Add", "config": {"name": "add_35", "trainable": false, "dtype": "float32"}, "name": "add_35", "inbound_nodes": [[["dropout_45", 0, 0, {}], ["dropout_45", 0, 0, {}]]]}, {"class_name": "Dropout", "config": {"name": "dropout_16", "trainable": false, "dtype": "float32", "rate": 0.1, "noise_shape": null, "seed": null}, "name": "dropout_16", "inbound_nodes": [[["activation_16", 0, 0, {}]]]}, {"class_name": "Conv1D", "config": {"name": "conv1d_22", "trainable": false, "dtype": "float32", "filters": 18, "kernel_size": [7], "strides": [1], "padding": "same", "data_format": "channels_last", "dilation_rate": [1], "groups": 1, "activation": "linear", "use_bias": true, "kernel_initializer": {"class_name": "HeUniform", "config": {"seed": null}}, "bias_initializer": {"class_name": "Zeros", "config": {}}, "kernel_regularizer": null, "bias_regularizer": null, "activity_regularizer": null, "kernel_constraint": null, "bias_constraint": null}, "name": "conv1d_22", "inbound_nodes": [[["add_35", 0, 0, {}]]]}, {"class_name": "Add", "config": {"name": "add_14", "trainable": false, "dtype": "float32"}, "name": "add_14", "inbound_nodes": [[["dropout_16", 0, 0, {}], ["dropout_15", 0, 0, {}]]]}, {"class_name": "BatchNormalization", "config": {"name": "batch_normalization_46", "trainable": false, "dtype": "float32", "axis": [2], "momentum": 0.99, "epsilon": 0.001, "center": true, "scale": true, "beta_initializer": {"class_name": "Zeros", "config": {}}, "gamma_initializer": {"class_name": "Ones", "config": {}}, "moving_mean_initializer": {"class_name": "Zeros", "config": {}}, "moving_variance_initializer": {"class_name": "Ones", "config": {}}, "beta_regularizer": null, "gamma_regularizer": null, "beta_constraint": null, "gamma_constraint": null}, "name": "batch_normalization_46", "inbound_nodes": [[["conv1d_22", 0, 0, {}]]]}, {"class_name": "Conv2D", "config": {"name": "conv2d_23", "trainable": false, "dtype": "float32", "filters": 18, "kernel_size": [3, 3], "strides": [1, 1], "padding": "same", "data_format": "channels_last", "dilation_rate": [1, 1], "groups": 1, "activation": "linear", "use_bias": true, "kernel_initializer": {"class_name": "GlorotUniform", "config": {"seed": null}}, "bias_initializer": {"class_name": "Zeros", "config": {}}, "kernel_regularizer": null, "bias_regularizer": null, "activity_regularizer": null, "kernel_constraint": null, "bias_constraint": null}, "name": "conv2d_23", "inbound_nodes": [[["add_14", 0, 0, {}]]]}, {"class_name": "Activation", "config": {"name": "activation_46", "trainable": false, "dtype": "float32", "activation": "relu"}, "name": "activation_46", "inbound_nodes": [[["batch_normalization_46", 0, 0, {}]]]}, {"class_name": "BatchNormalization", "config": {"name": "batch_normalization_17", "trainable": false, "dtype": "float32", "axis": [3], "momentum": 0.99, "epsilon": 0.001, "center": true, "scale": true, "beta_initializer": {"class_name": "Zeros", "config": {}}, "gamma_initializer": {"class_name": "Ones", "config": {}}, "moving_mean_initializer": {"class_name": "Zeros", "config": {}}, "moving_variance_initializer": {"class_name": "Ones", "config": {}}, "beta_regularizer": null, "gamma_regularizer": null, "beta_constraint": null, "gamma_constraint": null}, "name": "batch_normalization_17", "inbound_nodes": [[["conv2d_23", 0, 0, {}]]]}, {"class_name": "Dropout", "config": {"name": "dropout_46", "trainable": false, "dtype": "float32", "rate": 0.1, "noise_shape": null, "seed": null}, "name": "dropout_46", "inbound_nodes": [[["activation_46", 0, 0, {}]]]}, {"class_name": "Activation", "config": {"name": "activation_17", "trainable": false, "dtype": "float32", "activation": "relu"}, "name": "activation_17", "inbound_nodes": [[["batch_normalization_17", 0, 0, {}]]]}, {"class_name": "Add", "config": {"name": "add_36", "trainable": false, "dtype": "float32"}, "name": "add_36", "inbound_nodes": [[["dropout_46", 0, 0, {}], ["dropout_45", 0, 0, {}]]]}, {"class_name": "Dropout", "config": {"name": "dropout_17", "trainable": false, "dtype": "float32", "rate": 0.1, "noise_shape": null, "seed": null}, "name": "dropout_17", "inbound_nodes": [[["activation_17", 0, 0, {}]]]}, {"class_name": "Conv2D", "config": {"name": "conv2d_21", "trainable": false, "dtype": "float32", "filters": 18, "kernel_size": [1, 1], "strides": [1, 1], "padding": "valid", "data_format": "channels_last", "dilation_rate": [1, 1], "groups": 1, "activation": "linear", "use_bias": true, "kernel_initializer": {"class_name": "GlorotUniform", "config": {"seed": null}}, "bias_initializer": {"class_name": "Zeros", "config": {}}, "kernel_regularizer": null, "bias_regularizer": null, "activity_regularizer": null, "kernel_constraint": null, "bias_constraint": null}, "name": "conv2d_21", "inbound_nodes": [[["dropout_15", 0, 0, {}]]]}, {"class_name": "Conv1D", "config": {"name": "conv1d_23", "trainable": false, "dtype": "float32", "filters": 18, "kernel_size": [7], "strides": [1], "padding": "same", "data_format": "channels_last", "dilation_rate": [1], "groups": 1, "activation": "linear", "use_bias": true, "kernel_initializer": {"class_name": "HeUniform", "config": {"seed": null}}, "bias_initializer": {"class_name": "Zeros", "config": {}}, "kernel_regularizer": null, "bias_regularizer": null, "activity_regularizer": null, "kernel_constraint": null, "bias_constraint": null}, "name": "conv1d_23", "inbound_nodes": [[["add_36", 0, 0, {}]]]}, {"class_name": "Add", "config": {"name": "spec_E2", "trainable": false, "dtype": "float32"}, "name": "spec_E2", "inbound_nodes": [[["dropout_17", 0, 0, {}], ["conv2d_21", 0, 0, {}]]]}, {"class_name": "BatchNormalization", "config": {"name": "batch_normalization_47", "trainable": false, "dtype": "float32", "axis": [2], "momentum": 0.99, "epsilon": 0.001, "center": true, "scale": true, "beta_initializer": {"class_name": "Zeros", "config": {}}, "gamma_initializer": {"class_name": "Ones", "config": {}}, "moving_mean_initializer": {"class_name": "Zeros", "config": {}}, "moving_variance_initializer": {"class_name": "Ones", "config": {}}, "beta_regularizer": null, "gamma_regularizer": null, "beta_constraint": null, "gamma_constraint": null}, "name": "batch_normalization_47", "inbound_nodes": [[["conv1d_23", 0, 0, {}]]]}, {"class_name": "Conv2D", "config": {"name": "conv2d_24", "trainable": false, "dtype": "float32", "filters": 24, "kernel_size": [3, 3], "strides": [1, 1], "padding": "same", "data_format": "channels_last", "dilation_rate": [1, 1], "groups": 1, "activation": "linear", "use_bias": true, "kernel_initializer": {"class_name": "GlorotUniform", "config": {"seed": null}}, "bias_initializer": {"class_name": "Zeros", "config": {}}, "kernel_regularizer": null, "bias_regularizer": null, "activity_regularizer": null, "kernel_constraint": null, "bias_constraint": null}, "name": "conv2d_24", "inbound_nodes": [[["spec_E2", 0, 0, {}]]]}, {"class_name": "Activation", "config": {"name": "activation_47", "trainable": false, "dtype": "float32", "activation": "relu"}, "name": "activation_47", "inbound_nodes": [[["batch_normalization_47", 0, 0, {}]]]}, {"class_name": "BatchNormalization", "config": {"name": "batch_normalization_18", "trainable": false, "dtype": "float32", "axis": [3], "momentum": 0.99, "epsilon": 0.001, "center": true, "scale": true, "beta_initializer": {"class_name": "Zeros", "config": {}}, "gamma_initializer": {"class_name": "Ones", "config": {}}, "moving_mean_initializer": {"class_name": "Zeros", "config": {}}, "moving_variance_initializer": {"class_name": "Ones", "config": {}}, "beta_regularizer": null, "gamma_regularizer": null, "beta_constraint": null, "gamma_constraint": null}, "name": "batch_normalization_18", "inbound_nodes": [[["conv2d_24", 0, 0, {}]]]}, {"class_name": "Dropout", "config": {"name": "dropout_47", "trainable": false, "dtype": "float32", "rate": 0.1, "noise_shape": null, "seed": null}, "name": "dropout_47", "inbound_nodes": [[["activation_47", 0, 0, {}]]]}, {"class_name": "Conv1D", "config": {"name": "conv1d_21", "trainable": false, "dtype": "float32", "filters": 18, "kernel_size": [7], "strides": [1], "padding": "same", "data_format": "channels_last", "dilation_rate": [1], "groups": 1, "activation": "linear", "use_bias": true, "kernel_initializer": {"class_name": "HeUniform", "config": {"seed": null}}, "bias_initializer": {"class_name": "Zeros", "config": {}}, "kernel_regularizer": null, "bias_regularizer": null, "activity_regularizer": null, "kernel_constraint": null, "bias_constraint": null}, "name": "conv1d_21", "inbound_nodes": [[["dropout_45", 0, 0, {}]]]}, {"class_name": "Activation", "config": {"name": "activation_18", "trainable": false, "dtype": "float32", "activation": "relu"}, "name": "activation_18", "inbound_nodes": [[["batch_normalization_18", 0, 0, {}]]]}, {"class_name": "Add", "config": {"name": "ts_exp_E2", "trainable": false, "dtype": "float32"}, "name": "ts_exp_E2", "inbound_nodes": [[["dropout_47", 0, 0, {}], ["conv1d_21", 0, 0, {}]]]}, {"class_name": "Dropout", "config": {"name": "dropout_18", "trainable": false, "dtype": "float32", "rate": 0.1, "noise_shape": null, "seed": null}, "name": "dropout_18", "inbound_nodes": [[["activation_18", 0, 0, {}]]]}, {"class_name": "Conv1D", "config": {"name": "conv1d_24", "trainable": false, "dtype": "float32", "filters": 24, "kernel_size": [7], "strides": [5], "padding": "same", "data_format": "channels_last", "dilation_rate": [1], "groups": 1, "activation": "linear", "use_bias": true, "kernel_initializer": {"class_name": "HeUniform", "config": {"seed": null}}, "bias_initializer": {"class_name": "Zeros", "config": {}}, "kernel_regularizer": null, "bias_regularizer": null, "activity_regularizer": null, "kernel_constraint": null, "bias_constraint": null}, "name": "conv1d_24", "inbound_nodes": [[["ts_exp_E2", 0, 0, {}]]]}, {"class_name": "Add", "config": {"name": "add_15", "trainable": false, "dtype": "float32"}, "name": "add_15", "inbound_nodes": [[["dropout_18", 0, 0, {}], ["dropout_18", 0, 0, {}]]]}, {"class_name": "BatchNormalization", "config": {"name": "batch_normalization_48", "trainable": false, "dtype": "float32", "axis": [2], "momentum": 0.99, "epsilon": 0.001, "center": true, "scale": true, "beta_initializer": {"class_name": "Zeros", "config": {}}, "gamma_initializer": {"class_name": "Ones", "config": {}}, "moving_mean_initializer": {"class_name": "Zeros", "config": {}}, "moving_variance_initializer": {"class_name": "Ones", "config": {}}, "beta_regularizer": null, "gamma_regularizer": null, "beta_constraint": null, "gamma_constraint": null}, "name": "batch_normalization_48", "inbound_nodes": [[["conv1d_24", 0, 0, {}]]]}, {"class_name": "Conv2D", "config": {"name": "conv2d_26", "trainable": false, "dtype": "float32", "filters": 24, "kernel_size": [3, 3], "strides": [1, 1], "padding": "same", "data_format": "channels_last", "dilation_rate": [1, 1], "groups": 1, "activation": "linear", "use_bias": true, "kernel_initializer": {"class_name": "GlorotUniform", "config": {"seed": null}}, "bias_initializer": {"class_name": "Zeros", "config": {}}, "kernel_regularizer": null, "bias_regularizer": null, "activity_regularizer": null, "kernel_constraint": null, "bias_constraint": null}, "name": "conv2d_26", "inbound_nodes": [[["add_15", 0, 0, {}]]]}, {"class_name": "Activation", "config": {"name": "activation_48", "trainable": false, "dtype": "float32", "activation": "relu"}, "name": "activation_48", "inbound_nodes": [[["batch_normalization_48", 0, 0, {}]]]}, {"class_name": "BatchNormalization", "config": {"name": "batch_normalization_19", "trainable": false, "dtype": "float32", "axis": [3], "momentum": 0.99, "epsilon": 0.001, "center": true, "scale": true, "beta_initializer": {"class_name": "Zeros", "config": {}}, "gamma_initializer": {"class_name": "Ones", "config": {}}, "moving_mean_initializer": {"class_name": "Zeros", "config": {}}, "moving_variance_initializer": {"class_name": "Ones", "config": {}}, "beta_regularizer": null, "gamma_regularizer": null, "beta_constraint": null, "gamma_constraint": null}, "name": "batch_normalization_19", "inbound_nodes": [[["conv2d_26", 0, 0, {}]]]}, {"class_name": "Dropout", "config": {"name": "dropout_48", "trainable": false, "dtype": "float32", "rate": 0.1, "noise_shape": null, "seed": null}, "name": "dropout_48", "inbound_nodes": [[["activation_48", 0, 0, {}]]]}, {"class_name": "Activation", "config": {"name": "activation_19", "trainable": false, "dtype": "float32", "activation": "relu"}, "name": "activation_19", "inbound_nodes": [[["batch_normalization_19", 0, 0, {}]]]}, {"class_name": "Add", "config": {"name": "add_37", "trainable": false, "dtype": "float32"}, "name": "add_37", "inbound_nodes": [[["dropout_48", 0, 0, {}], ["dropout_48", 0, 0, {}]]]}, {"class_name": "Dropout", "config": {"name": "dropout_19", "trainable": false, "dtype": "float32", "rate": 0.1, "noise_shape": null, "seed": null}, "name": "dropout_19", "inbound_nodes": [[["activation_19", 0, 0, {}]]]}, {"class_name": "Conv1D", "config": {"name": "conv1d_26", "trainable": false, "dtype": "float32", "filters": 24, "kernel_size": [7], "strides": [1], "padding": "same", "data_format": "channels_last", "dilation_rate": [1], "groups": 1, "activation": "linear", "use_bias": true, "kernel_initializer": {"class_name": "HeUniform", "config": {"seed": null}}, "bias_initializer": {"class_name": "Zeros", "config": {}}, "kernel_regularizer": null, "bias_regularizer": null, "activity_regularizer": null, "kernel_constraint": null, "bias_constraint": null}, "name": "conv1d_26", "inbound_nodes": [[["add_37", 0, 0, {}]]]}, {"class_name": "Add", "config": {"name": "add_16", "trainable": false, "dtype": "float32"}, "name": "add_16", "inbound_nodes": [[["dropout_19", 0, 0, {}], ["dropout_18", 0, 0, {}]]]}, {"class_name": "BatchNormalization", "config": {"name": "batch_normalization_49", "trainable": false, "dtype": "float32", "axis": [2], "momentum": 0.99, "epsilon": 0.001, "center": true, "scale": true, "beta_initializer": {"class_name": "Zeros", "config": {}}, "gamma_initializer": {"class_name": "Ones", "config": {}}, "moving_mean_initializer": {"class_name": "Zeros", "config": {}}, "moving_variance_initializer": {"class_name": "Ones", "config": {}}, "beta_regularizer": null, "gamma_regularizer": null, "beta_constraint": null, "gamma_constraint": null}, "name": "batch_normalization_49", "inbound_nodes": [[["conv1d_26", 0, 0, {}]]]}, {"class_name": "Conv2D", "config": {"name": "conv2d_27", "trainable": false, "dtype": "float32", "filters": 24, "kernel_size": [3, 3], "strides": [1, 1], "padding": "same", "data_format": "channels_last", "dilation_rate": [1, 1], "groups": 1, "activation": "linear", "use_bias": true, "kernel_initializer": {"class_name": "GlorotUniform", "config": {"seed": null}}, "bias_initializer": {"class_name": "Zeros", "config": {}}, "kernel_regularizer": null, "bias_regularizer": null, "activity_regularizer": null, "kernel_constraint": null, "bias_constraint": null}, "name": "conv2d_27", "inbound_nodes": [[["add_16", 0, 0, {}]]]}, {"class_name": "Activation", "config": {"name": "activation_49", "trainable": false, "dtype": "float32", "activation": "relu"}, "name": "activation_49", "inbound_nodes": [[["batch_normalization_49", 0, 0, {}]]]}, {"class_name": "BatchNormalization", "config": {"name": "batch_normalization_20", "trainable": false, "dtype": "float32", "axis": [3], "momentum": 0.99, "epsilon": 0.001, "center": true, "scale": true, "beta_initializer": {"class_name": "Zeros", "config": {}}, "gamma_initializer": {"class_name": "Ones", "config": {}}, "moving_mean_initializer": {"class_name": "Zeros", "config": {}}, "moving_variance_initializer": {"class_name": "Ones", "config": {}}, "beta_regularizer": null, "gamma_regularizer": null, "beta_constraint": null, "gamma_constraint": null}, "name": "batch_normalization_20", "inbound_nodes": [[["conv2d_27", 0, 0, {}]]]}, {"class_name": "Dropout", "config": {"name": "dropout_49", "trainable": false, "dtype": "float32", "rate": 0.1, "noise_shape": null, "seed": null}, "name": "dropout_49", "inbound_nodes": [[["activation_49", 0, 0, {}]]]}, {"class_name": "Activation", "config": {"name": "activation_20", "trainable": false, "dtype": "float32", "activation": "relu"}, "name": "activation_20", "inbound_nodes": [[["batch_normalization_20", 0, 0, {}]]]}, {"class_name": "Add", "config": {"name": "add_38", "trainable": false, "dtype": "float32"}, "name": "add_38", "inbound_nodes": [[["dropout_49", 0, 0, {}], ["dropout_48", 0, 0, {}]]]}, {"class_name": "Dropout", "config": {"name": "dropout_20", "trainable": false, "dtype": "float32", "rate": 0.1, "noise_shape": null, "seed": null}, "name": "dropout_20", "inbound_nodes": [[["activation_20", 0, 0, {}]]]}, {"class_name": "Conv2D", "config": {"name": "conv2d_25", "trainable": false, "dtype": "float32", "filters": 24, "kernel_size": [1, 1], "strides": [1, 1], "padding": "valid", "data_format": "channels_last", "dilation_rate": [1, 1], "groups": 1, "activation": "linear", "use_bias": true, "kernel_initializer": {"class_name": "GlorotUniform", "config": {"seed": null}}, "bias_initializer": {"class_name": "Zeros", "config": {}}, "kernel_regularizer": null, "bias_regularizer": null, "activity_regularizer": null, "kernel_constraint": null, "bias_constraint": null}, "name": "conv2d_25", "inbound_nodes": [[["dropout_18", 0, 0, {}]]]}, {"class_name": "Conv1D", "config": {"name": "conv1d_27", "trainable": false, "dtype": "float32", "filters": 24, "kernel_size": [7], "strides": [1], "padding": "same", "data_format": "channels_last", "dilation_rate": [1], "groups": 1, "activation": "linear", "use_bias": true, "kernel_initializer": {"class_name": "HeUniform", "config": {"seed": null}}, "bias_initializer": {"class_name": "Zeros", "config": {}}, "kernel_regularizer": null, "bias_regularizer": null, "activity_regularizer": null, "kernel_constraint": null, "bias_constraint": null}, "name": "conv1d_27", "inbound_nodes": [[["add_38", 0, 0, {}]]]}, {"class_name": "Add", "config": {"name": "add_17", "trainable": false, "dtype": "float32"}, "name": "add_17", "inbound_nodes": [[["dropout_20", 0, 0, {}], ["conv2d_25", 0, 0, {}]]]}, {"class_name": "BatchNormalization", "config": {"name": "batch_normalization_50", "trainable": false, "dtype": "float32", "axis": [2], "momentum": 0.99, "epsilon": 0.001, "center": true, "scale": true, "beta_initializer": {"class_name": "Zeros", "config": {}}, "gamma_initializer": {"class_name": "Ones", "config": {}}, "moving_mean_initializer": {"class_name": "Zeros", "config": {}}, "moving_variance_initializer": {"class_name": "Ones", "config": {}}, "beta_regularizer": null, "gamma_regularizer": null, "beta_constraint": null, "gamma_constraint": null}, "name": "batch_normalization_50", "inbound_nodes": [[["conv1d_27", 0, 0, {}]]]}, {"class_name": "Conv2D", "config": {"name": "conv2d_28", "trainable": false, "dtype": "float32", "filters": 24, "kernel_size": [3, 3], "strides": [3, 3], "padding": "same", "data_format": "channels_last", "dilation_rate": [1, 1], "groups": 1, "activation": "linear", "use_bias": true, "kernel_initializer": {"class_name": "GlorotUniform", "config": {"seed": null}}, "bias_initializer": {"class_name": "Zeros", "config": {}}, "kernel_regularizer": null, "bias_regularizer": null, "activity_regularizer": null, "kernel_constraint": null, "bias_constraint": null}, "name": "conv2d_28", "inbound_nodes": [[["add_17", 0, 0, {}]]]}, {"class_name": "Activation", "config": {"name": "activation_50", "trainable": false, "dtype": "float32", "activation": "relu"}, "name": "activation_50", "inbound_nodes": [[["batch_normalization_50", 0, 0, {}]]]}, {"class_name": "BatchNormalization", "config": {"name": "batch_normalization_21", "trainable": false, "dtype": "float32", "axis": [3], "momentum": 0.99, "epsilon": 0.001, "center": true, "scale": true, "beta_initializer": {"class_name": "Zeros", "config": {}}, "gamma_initializer": {"class_name": "Ones", "config": {}}, "moving_mean_initializer": {"class_name": "Zeros", "config": {}}, "moving_variance_initializer": {"class_name": "Ones", "config": {}}, "beta_regularizer": null, "gamma_regularizer": null, "beta_constraint": null, "gamma_constraint": null}, "name": "batch_normalization_21", "inbound_nodes": [[["conv2d_28", 0, 0, {}]]]}, {"class_name": "Dropout", "config": {"name": "dropout_50", "trainable": false, "dtype": "float32", "rate": 0.1, "noise_shape": null, "seed": null}, "name": "dropout_50", "inbound_nodes": [[["activation_50", 0, 0, {}]]]}, {"class_name": "Conv1D", "config": {"name": "conv1d_25", "trainable": false, "dtype": "float32", "filters": 24, "kernel_size": [7], "strides": [1], "padding": "same", "data_format": "channels_last", "dilation_rate": [1], "groups": 1, "activation": "linear", "use_bias": true, "kernel_initializer": {"class_name": "HeUniform", "config": {"seed": null}}, "bias_initializer": {"class_name": "Zeros", "config": {}}, "kernel_regularizer": null, "bias_regularizer": null, "activity_regularizer": null, "kernel_constraint": null, "bias_constraint": null}, "name": "conv1d_25", "inbound_nodes": [[["dropout_48", 0, 0, {}]]]}, {"class_name": "Activation", "config": {"name": "activation_21", "trainable": false, "dtype": "float32", "activation": "relu"}, "name": "activation_21", "inbound_nodes": [[["batch_normalization_21", 0, 0, {}]]]}, {"class_name": "Add", "config": {"name": "ts_E3", "trainable": false, "dtype": "float32"}, "name": "ts_E3", "inbound_nodes": [[["dropout_50", 0, 0, {}], ["conv1d_25", 0, 0, {}]]]}, {"class_name": "Dropout", "config": {"name": "dropout_21", "trainable": false, "dtype": "float32", "rate": 0.1, "noise_shape": null, "seed": null}, "name": "dropout_21", "inbound_nodes": [[["activation_21", 0, 0, {}]]]}, {"class_name": "Conv1D", "config": {"name": "conv1d_28", "trainable": false, "dtype": "float32", "filters": 24, "kernel_size": [7], "strides": [1], "padding": "same", "data_format": "channels_last", "dilation_rate": [1], "groups": 1, "activation": "linear", "use_bias": true, "kernel_initializer": {"class_name": "HeUniform", "config": {"seed": null}}, "bias_initializer": {"class_name": "Zeros", "config": {}}, "kernel_regularizer": null, "bias_regularizer": null, "activity_regularizer": null, "kernel_constraint": null, "bias_constraint": null}, "name": "conv1d_28", "inbound_nodes": [[["ts_E3", 0, 0, {}]]]}, {"class_name": "Add", "config": {"name": "add_18", "trainable": false, "dtype": "float32"}, "name": "add_18", "inbound_nodes": [[["dropout_21", 0, 0, {}], ["dropout_21", 0, 0, {}]]]}, {"class_name": "BatchNormalization", "config": {"name": "batch_normalization_51", "trainable": false, "dtype": "float32", "axis": [2], "momentum": 0.99, "epsilon": 0.001, "center": true, "scale": true, "beta_initializer": {"class_name": "Zeros", "config": {}}, "gamma_initializer": {"class_name": "Ones", "config": {}}, "moving_mean_initializer": {"class_name": "Zeros", "config": {}}, "moving_variance_initializer": {"class_name": "Ones", "config": {}}, "beta_regularizer": null, "gamma_regularizer": null, "beta_constraint": null, "gamma_constraint": null}, "name": "batch_normalization_51", "inbound_nodes": [[["conv1d_28", 0, 0, {}]]]}, {"class_name": "Conv2D", "config": {"name": "conv2d_30", "trainable": false, "dtype": "float32", "filters": 24, "kernel_size": [3, 3], "strides": [1, 1], "padding": "same", "data_format": "channels_last", "dilation_rate": [1, 1], "groups": 1, "activation": "linear", "use_bias": true, "kernel_initializer": {"class_name": "GlorotUniform", "config": {"seed": null}}, "bias_initializer": {"class_name": "Zeros", "config": {}}, "kernel_regularizer": null, "bias_regularizer": null, "activity_regularizer": null, "kernel_constraint": null, "bias_constraint": null}, "name": "conv2d_30", "inbound_nodes": [[["add_18", 0, 0, {}]]]}, {"class_name": "Activation", "config": {"name": "activation_51", "trainable": false, "dtype": "float32", "activation": "relu"}, "name": "activation_51", "inbound_nodes": [[["batch_normalization_51", 0, 0, {}]]]}, {"class_name": "BatchNormalization", "config": {"name": "batch_normalization_22", "trainable": false, "dtype": "float32", "axis": [3], "momentum": 0.99, "epsilon": 0.001, "center": true, "scale": true, "beta_initializer": {"class_name": "Zeros", "config": {}}, "gamma_initializer": {"class_name": "Ones", "config": {}}, "moving_mean_initializer": {"class_name": "Zeros", "config": {}}, "moving_variance_initializer": {"class_name": "Ones", "config": {}}, "beta_regularizer": null, "gamma_regularizer": null, "beta_constraint": null, "gamma_constraint": null}, "name": "batch_normalization_22", "inbound_nodes": [[["conv2d_30", 0, 0, {}]]]}, {"class_name": "Dropout", "config": {"name": "dropout_51", "trainable": false, "dtype": "float32", "rate": 0.1, "noise_shape": null, "seed": null}, "name": "dropout_51", "inbound_nodes": [[["activation_51", 0, 0, {}]]]}, {"class_name": "Activation", "config": {"name": "activation_22", "trainable": false, "dtype": "float32", "activation": "relu"}, "name": "activation_22", "inbound_nodes": [[["batch_normalization_22", 0, 0, {}]]]}, {"class_name": "Add", "config": {"name": "add_39", "trainable": false, "dtype": "float32"}, "name": "add_39", "inbound_nodes": [[["dropout_51", 0, 0, {}], ["dropout_51", 0, 0, {}]]]}, {"class_name": "Dropout", "config": {"name": "dropout_22", "trainable": false, "dtype": "float32", "rate": 0.1, "noise_shape": null, "seed": null}, "name": "dropout_22", "inbound_nodes": [[["activation_22", 0, 0, {}]]]}, {"class_name": "Conv1D", "config": {"name": "conv1d_30", "trainable": false, "dtype": "float32", "filters": 24, "kernel_size": [7], "strides": [1], "padding": "same", "data_format": "channels_last", "dilation_rate": [1], "groups": 1, "activation": "linear", "use_bias": true, "kernel_initializer": {"class_name": "HeUniform", "config": {"seed": null}}, "bias_initializer": {"class_name": "Zeros", "config": {}}, "kernel_regularizer": null, "bias_regularizer": null, "activity_regularizer": null, "kernel_constraint": null, "bias_constraint": null}, "name": "conv1d_30", "inbound_nodes": [[["add_39", 0, 0, {}]]]}, {"class_name": "Add", "config": {"name": "add_19", "trainable": false, "dtype": "float32"}, "name": "add_19", "inbound_nodes": [[["dropout_22", 0, 0, {}], ["dropout_21", 0, 0, {}]]]}, {"class_name": "BatchNormalization", "config": {"name": "batch_normalization_52", "trainable": false, "dtype": "float32", "axis": [2], "momentum": 0.99, "epsilon": 0.001, "center": true, "scale": true, "beta_initializer": {"class_name": "Zeros", "config": {}}, "gamma_initializer": {"class_name": "Ones", "config": {}}, "moving_mean_initializer": {"class_name": "Zeros", "config": {}}, "moving_variance_initializer": {"class_name": "Ones", "config": {}}, "beta_regularizer": null, "gamma_regularizer": null, "beta_constraint": null, "gamma_constraint": null}, "name": "batch_normalization_52", "inbound_nodes": [[["conv1d_30", 0, 0, {}]]]}, {"class_name": "Conv2D", "config": {"name": "conv2d_31", "trainable": false, "dtype": "float32", "filters": 24, "kernel_size": [3, 3], "strides": [1, 1], "padding": "same", "data_format": "channels_last", "dilation_rate": [1, 1], "groups": 1, "activation": "linear", "use_bias": true, "kernel_initializer": {"class_name": "GlorotUniform", "config": {"seed": null}}, "bias_initializer": {"class_name": "Zeros", "config": {}}, "kernel_regularizer": null, "bias_regularizer": null, "activity_regularizer": null, "kernel_constraint": null, "bias_constraint": null}, "name": "conv2d_31", "inbound_nodes": [[["add_19", 0, 0, {}]]]}, {"class_name": "Activation", "config": {"name": "activation_52", "trainable": false, "dtype": "float32", "activation": "relu"}, "name": "activation_52", "inbound_nodes": [[["batch_normalization_52", 0, 0, {}]]]}, {"class_name": "BatchNormalization", "config": {"name": "batch_normalization_23", "trainable": false, "dtype": "float32", "axis": [3], "momentum": 0.99, "epsilon": 0.001, "center": true, "scale": true, "beta_initializer": {"class_name": "Zeros", "config": {}}, "gamma_initializer": {"class_name": "Ones", "config": {}}, "moving_mean_initializer": {"class_name": "Zeros", "config": {}}, "moving_variance_initializer": {"class_name": "Ones", "config": {}}, "beta_regularizer": null, "gamma_regularizer": null, "beta_constraint": null, "gamma_constraint": null}, "name": "batch_normalization_23", "inbound_nodes": [[["conv2d_31", 0, 0, {}]]]}, {"class_name": "Dropout", "config": {"name": "dropout_52", "trainable": false, "dtype": "float32", "rate": 0.1, "noise_shape": null, "seed": null}, "name": "dropout_52", "inbound_nodes": [[["activation_52", 0, 0, {}]]]}, {"class_name": "Activation", "config": {"name": "activation_23", "trainable": false, "dtype": "float32", "activation": "relu"}, "name": "activation_23", "inbound_nodes": [[["batch_normalization_23", 0, 0, {}]]]}, {"class_name": "Add", "config": {"name": "add_40", "trainable": false, "dtype": "float32"}, "name": "add_40", "inbound_nodes": [[["dropout_52", 0, 0, {}], ["dropout_51", 0, 0, {}]]]}, {"class_name": "Dropout", "config": {"name": "dropout_23", "trainable": false, "dtype": "float32", "rate": 0.1, "noise_shape": null, "seed": null}, "name": "dropout_23", "inbound_nodes": [[["activation_23", 0, 0, {}]]]}, {"class_name": "Conv2D", "config": {"name": "conv2d_29", "trainable": false, "dtype": "float32", "filters": 24, "kernel_size": [1, 1], "strides": [1, 1], "padding": "valid", "data_format": "channels_last", "dilation_rate": [1, 1], "groups": 1, "activation": "linear", "use_bias": true, "kernel_initializer": {"class_name": "GlorotUniform", "config": {"seed": null}}, "bias_initializer": {"class_name": "Zeros", "config": {}}, "kernel_regularizer": null, "bias_regularizer": null, "activity_regularizer": null, "kernel_constraint": null, "bias_constraint": null}, "name": "conv2d_29", "inbound_nodes": [[["dropout_21", 0, 0, {}]]]}, {"class_name": "Conv1D", "config": {"name": "conv1d_31", "trainable": false, "dtype": "float32", "filters": 24, "kernel_size": [7], "strides": [1], "padding": "same", "data_format": "channels_last", "dilation_rate": [1], "groups": 1, "activation": "linear", "use_bias": true, "kernel_initializer": {"class_name": "HeUniform", "config": {"seed": null}}, "bias_initializer": {"class_name": "Zeros", "config": {}}, "kernel_regularizer": null, "bias_regularizer": null, "activity_regularizer": null, "kernel_constraint": null, "bias_constraint": null}, "name": "conv1d_31", "inbound_nodes": [[["add_40", 0, 0, {}]]]}, {"class_name": "Add", "config": {"name": "spec_E3", "trainable": false, "dtype": "float32"}, "name": "spec_E3", "inbound_nodes": [[["dropout_23", 0, 0, {}], ["conv2d_29", 0, 0, {}]]]}, {"class_name": "BatchNormalization", "config": {"name": "batch_normalization_53", "trainable": false, "dtype": "float32", "axis": [2], "momentum": 0.99, "epsilon": 0.001, "center": true, "scale": true, "beta_initializer": {"class_name": "Zeros", "config": {}}, "gamma_initializer": {"class_name": "Ones", "config": {}}, "moving_mean_initializer": {"class_name": "Zeros", "config": {}}, "moving_variance_initializer": {"class_name": "Ones", "config": {}}, "beta_regularizer": null, "gamma_regularizer": null, "beta_constraint": null, "gamma_constraint": null}, "name": "batch_normalization_53", "inbound_nodes": [[["conv1d_31", 0, 0, {}]]]}, {"class_name": "Conv2D", "config": {"name": "conv2d_32", "trainable": false, "dtype": "float32", "filters": 30, "kernel_size": [3, 3], "strides": [1, 1], "padding": "same", "data_format": "channels_last", "dilation_rate": [1, 1], "groups": 1, "activation": "linear", "use_bias": true, "kernel_initializer": {"class_name": "GlorotUniform", "config": {"seed": null}}, "bias_initializer": {"class_name": "Zeros", "config": {}}, "kernel_regularizer": null, "bias_regularizer": null, "activity_regularizer": null, "kernel_constraint": null, "bias_constraint": null}, "name": "conv2d_32", "inbound_nodes": [[["spec_E3", 0, 0, {}]]]}, {"class_name": "Activation", "config": {"name": "activation_53", "trainable": false, "dtype": "float32", "activation": "relu"}, "name": "activation_53", "inbound_nodes": [[["batch_normalization_53", 0, 0, {}]]]}, {"class_name": "BatchNormalization", "config": {"name": "batch_normalization_24", "trainable": false, "dtype": "float32", "axis": [3], "momentum": 0.99, "epsilon": 0.001, "center": true, "scale": true, "beta_initializer": {"class_name": "Zeros", "config": {}}, "gamma_initializer": {"class_name": "Ones", "config": {}}, "moving_mean_initializer": {"class_name": "Zeros", "config": {}}, "moving_variance_initializer": {"class_name": "Ones", "config": {}}, "beta_regularizer": null, "gamma_regularizer": null, "beta_constraint": null, "gamma_constraint": null}, "name": "batch_normalization_24", "inbound_nodes": [[["conv2d_32", 0, 0, {}]]]}, {"class_name": "Dropout", "config": {"name": "dropout_53", "trainable": false, "dtype": "float32", "rate": 0.1, "noise_shape": null, "seed": null}, "name": "dropout_53", "inbound_nodes": [[["activation_53", 0, 0, {}]]]}, {"class_name": "Conv1D", "config": {"name": "conv1d_29", "trainable": false, "dtype": "float32", "filters": 24, "kernel_size": [7], "strides": [1], "padding": "same", "data_format": "channels_last", "dilation_rate": [1], "groups": 1, "activation": "linear", "use_bias": true, "kernel_initializer": {"class_name": "HeUniform", "config": {"seed": null}}, "bias_initializer": {"class_name": "Zeros", "config": {}}, "kernel_regularizer": null, "bias_regularizer": null, "activity_regularizer": null, "kernel_constraint": null, "bias_constraint": null}, "name": "conv1d_29", "inbound_nodes": [[["dropout_51", 0, 0, {}]]]}, {"class_name": "Activation", "config": {"name": "activation_24", "trainable": false, "dtype": "float32", "activation": "relu"}, "name": "activation_24", "inbound_nodes": [[["batch_normalization_24", 0, 0, {}]]]}, {"class_name": "Add", "config": {"name": "ts_exp_E3", "trainable": false, "dtype": "float32"}, "name": "ts_exp_E3", "inbound_nodes": [[["dropout_53", 0, 0, {}], ["conv1d_29", 0, 0, {}]]]}, {"class_name": "Dropout", "config": {"name": "dropout_24", "trainable": false, "dtype": "float32", "rate": 0.1, "noise_shape": null, "seed": null}, "name": "dropout_24", "inbound_nodes": [[["activation_24", 0, 0, {}]]]}, {"class_name": "Conv1D", "config": {"name": "conv1d_32", "trainable": false, "dtype": "float32", "filters": 30, "kernel_size": [7], "strides": [5], "padding": "same", "data_format": "channels_last", "dilation_rate": [1], "groups": 1, "activation": "linear", "use_bias": true, "kernel_initializer": {"class_name": "HeUniform", "config": {"seed": null}}, "bias_initializer": {"class_name": "Zeros", "config": {}}, "kernel_regularizer": null, "bias_regularizer": null, "activity_regularizer": null, "kernel_constraint": null, "bias_constraint": null}, "name": "conv1d_32", "inbound_nodes": [[["ts_exp_E3", 0, 0, {}]]]}, {"class_name": "Add", "config": {"name": "add_20", "trainable": false, "dtype": "float32"}, "name": "add_20", "inbound_nodes": [[["dropout_24", 0, 0, {}], ["dropout_24", 0, 0, {}]]]}, {"class_name": "BatchNormalization", "config": {"name": "batch_normalization_54", "trainable": false, "dtype": "float32", "axis": [2], "momentum": 0.99, "epsilon": 0.001, "center": true, "scale": true, "beta_initializer": {"class_name": "Zeros", "config": {}}, "gamma_initializer": {"class_name": "Ones", "config": {}}, "moving_mean_initializer": {"class_name": "Zeros", "config": {}}, "moving_variance_initializer": {"class_name": "Ones", "config": {}}, "beta_regularizer": null, "gamma_regularizer": null, "beta_constraint": null, "gamma_constraint": null}, "name": "batch_normalization_54", "inbound_nodes": [[["conv1d_32", 0, 0, {}]]]}, {"class_name": "Conv2D", "config": {"name": "conv2d_34", "trainable": false, "dtype": "float32", "filters": 30, "kernel_size": [3, 3], "strides": [1, 1], "padding": "same", "data_format": "channels_last", "dilation_rate": [1, 1], "groups": 1, "activation": "linear", "use_bias": true, "kernel_initializer": {"class_name": "GlorotUniform", "config": {"seed": null}}, "bias_initializer": {"class_name": "Zeros", "config": {}}, "kernel_regularizer": null, "bias_regularizer": null, "activity_regularizer": null, "kernel_constraint": null, "bias_constraint": null}, "name": "conv2d_34", "inbound_nodes": [[["add_20", 0, 0, {}]]]}, {"class_name": "Activation", "config": {"name": "activation_54", "trainable": false, "dtype": "float32", "activation": "relu"}, "name": "activation_54", "inbound_nodes": [[["batch_normalization_54", 0, 0, {}]]]}, {"class_name": "BatchNormalization", "config": {"name": "batch_normalization_25", "trainable": false, "dtype": "float32", "axis": [3], "momentum": 0.99, "epsilon": 0.001, "center": true, "scale": true, "beta_initializer": {"class_name": "Zeros", "config": {}}, "gamma_initializer": {"class_name": "Ones", "config": {}}, "moving_mean_initializer": {"class_name": "Zeros", "config": {}}, "moving_variance_initializer": {"class_name": "Ones", "config": {}}, "beta_regularizer": null, "gamma_regularizer": null, "beta_constraint": null, "gamma_constraint": null}, "name": "batch_normalization_25", "inbound_nodes": [[["conv2d_34", 0, 0, {}]]]}, {"class_name": "Dropout", "config": {"name": "dropout_54", "trainable": false, "dtype": "float32", "rate": 0.1, "noise_shape": null, "seed": null}, "name": "dropout_54", "inbound_nodes": [[["activation_54", 0, 0, {}]]]}, {"class_name": "Activation", "config": {"name": "activation_25", "trainable": false, "dtype": "float32", "activation": "relu"}, "name": "activation_25", "inbound_nodes": [[["batch_normalization_25", 0, 0, {}]]]}, {"class_name": "Add", "config": {"name": "add_41", "trainable": false, "dtype": "float32"}, "name": "add_41", "inbound_nodes": [[["dropout_54", 0, 0, {}], ["dropout_54", 0, 0, {}]]]}, {"class_name": "Dropout", "config": {"name": "dropout_25", "trainable": false, "dtype": "float32", "rate": 0.1, "noise_shape": null, "seed": null}, "name": "dropout_25", "inbound_nodes": [[["activation_25", 0, 0, {}]]]}, {"class_name": "Conv1D", "config": {"name": "conv1d_34", "trainable": false, "dtype": "float32", "filters": 30, "kernel_size": [7], "strides": [1], "padding": "same", "data_format": "channels_last", "dilation_rate": [1], "groups": 1, "activation": "linear", "use_bias": true, "kernel_initializer": {"class_name": "HeUniform", "config": {"seed": null}}, "bias_initializer": {"class_name": "Zeros", "config": {}}, "kernel_regularizer": null, "bias_regularizer": null, "activity_regularizer": null, "kernel_constraint": null, "bias_constraint": null}, "name": "conv1d_34", "inbound_nodes": [[["add_41", 0, 0, {}]]]}, {"class_name": "Add", "config": {"name": "add_21", "trainable": false, "dtype": "float32"}, "name": "add_21", "inbound_nodes": [[["dropout_25", 0, 0, {}], ["dropout_24", 0, 0, {}]]]}, {"class_name": "BatchNormalization", "config": {"name": "batch_normalization_55", "trainable": false, "dtype": "float32", "axis": [2], "momentum": 0.99, "epsilon": 0.001, "center": true, "scale": true, "beta_initializer": {"class_name": "Zeros", "config": {}}, "gamma_initializer": {"class_name": "Ones", "config": {}}, "moving_mean_initializer": {"class_name": "Zeros", "config": {}}, "moving_variance_initializer": {"class_name": "Ones", "config": {}}, "beta_regularizer": null, "gamma_regularizer": null, "beta_constraint": null, "gamma_constraint": null}, "name": "batch_normalization_55", "inbound_nodes": [[["conv1d_34", 0, 0, {}]]]}, {"class_name": "Conv2D", "config": {"name": "conv2d_35", "trainable": false, "dtype": "float32", "filters": 30, "kernel_size": [3, 3], "strides": [1, 1], "padding": "same", "data_format": "channels_last", "dilation_rate": [1, 1], "groups": 1, "activation": "linear", "use_bias": true, "kernel_initializer": {"class_name": "GlorotUniform", "config": {"seed": null}}, "bias_initializer": {"class_name": "Zeros", "config": {}}, "kernel_regularizer": null, "bias_regularizer": null, "activity_regularizer": null, "kernel_constraint": null, "bias_constraint": null}, "name": "conv2d_35", "inbound_nodes": [[["add_21", 0, 0, {}]]]}, {"class_name": "Activation", "config": {"name": "activation_55", "trainable": false, "dtype": "float32", "activation": "relu"}, "name": "activation_55", "inbound_nodes": [[["batch_normalization_55", 0, 0, {}]]]}, {"class_name": "BatchNormalization", "config": {"name": "batch_normalization_26", "trainable": false, "dtype": "float32", "axis": [3], "momentum": 0.99, "epsilon": 0.001, "center": true, "scale": true, "beta_initializer": {"class_name": "Zeros", "config": {}}, "gamma_initializer": {"class_name": "Ones", "config": {}}, "moving_mean_initializer": {"class_name": "Zeros", "config": {}}, "moving_variance_initializer": {"class_name": "Ones", "config": {}}, "beta_regularizer": null, "gamma_regularizer": null, "beta_constraint": null, "gamma_constraint": null}, "name": "batch_normalization_26", "inbound_nodes": [[["conv2d_35", 0, 0, {}]]]}, {"class_name": "Dropout", "config": {"name": "dropout_55", "trainable": false, "dtype": "float32", "rate": 0.1, "noise_shape": null, "seed": null}, "name": "dropout_55", "inbound_nodes": [[["activation_55", 0, 0, {}]]]}, {"class_name": "Activation", "config": {"name": "activation_26", "trainable": false, "dtype": "float32", "activation": "relu"}, "name": "activation_26", "inbound_nodes": [[["batch_normalization_26", 0, 0, {}]]]}, {"class_name": "Add", "config": {"name": "add_42", "trainable": false, "dtype": "float32"}, "name": "add_42", "inbound_nodes": [[["dropout_55", 0, 0, {}], ["dropout_54", 0, 0, {}]]]}, {"class_name": "Dropout", "config": {"name": "dropout_26", "trainable": false, "dtype": "float32", "rate": 0.1, "noise_shape": null, "seed": null}, "name": "dropout_26", "inbound_nodes": [[["activation_26", 0, 0, {}]]]}, {"class_name": "Conv2D", "config": {"name": "conv2d_33", "trainable": false, "dtype": "float32", "filters": 30, "kernel_size": [1, 1], "strides": [1, 1], "padding": "valid", "data_format": "channels_last", "dilation_rate": [1, 1], "groups": 1, "activation": "linear", "use_bias": true, "kernel_initializer": {"class_name": "GlorotUniform", "config": {"seed": null}}, "bias_initializer": {"class_name": "Zeros", "config": {}}, "kernel_regularizer": null, "bias_regularizer": null, "activity_regularizer": null, "kernel_constraint": null, "bias_constraint": null}, "name": "conv2d_33", "inbound_nodes": [[["dropout_24", 0, 0, {}]]]}, {"class_name": "Conv1D", "config": {"name": "conv1d_35", "trainable": false, "dtype": "float32", "filters": 30, "kernel_size": [7], "strides": [1], "padding": "same", "data_format": "channels_last", "dilation_rate": [1], "groups": 1, "activation": "linear", "use_bias": true, "kernel_initializer": {"class_name": "HeUniform", "config": {"seed": null}}, "bias_initializer": {"class_name": "Zeros", "config": {}}, "kernel_regularizer": null, "bias_regularizer": null, "activity_regularizer": null, "kernel_constraint": null, "bias_constraint": null}, "name": "conv1d_35", "inbound_nodes": [[["add_42", 0, 0, {}]]]}, {"class_name": "Add", "config": {"name": "add_22", "trainable": false, "dtype": "float32"}, "name": "add_22", "inbound_nodes": [[["dropout_26", 0, 0, {}], ["conv2d_33", 0, 0, {}]]]}, {"class_name": "BatchNormalization", "config": {"name": "batch_normalization_56", "trainable": false, "dtype": "float32", "axis": [2], "momentum": 0.99, "epsilon": 0.001, "center": true, "scale": true, "beta_initializer": {"class_name": "Zeros", "config": {}}, "gamma_initializer": {"class_name": "Ones", "config": {}}, "moving_mean_initializer": {"class_name": "Zeros", "config": {}}, "moving_variance_initializer": {"class_name": "Ones", "config": {}}, "beta_regularizer": null, "gamma_regularizer": null, "beta_constraint": null, "gamma_constraint": null}, "name": "batch_normalization_56", "inbound_nodes": [[["conv1d_35", 0, 0, {}]]]}, {"class_name": "Conv2D", "config": {"name": "conv2d_36", "trainable": false, "dtype": "float32", "filters": 30, "kernel_size": [3, 3], "strides": [3, 3], "padding": "same", "data_format": "channels_last", "dilation_rate": [1, 1], "groups": 1, "activation": "linear", "use_bias": true, "kernel_initializer": {"class_name": "GlorotUniform", "config": {"seed": null}}, "bias_initializer": {"class_name": "Zeros", "config": {}}, "kernel_regularizer": null, "bias_regularizer": null, "activity_regularizer": null, "kernel_constraint": null, "bias_constraint": null}, "name": "conv2d_36", "inbound_nodes": [[["add_22", 0, 0, {}]]]}, {"class_name": "Activation", "config": {"name": "activation_56", "trainable": false, "dtype": "float32", "activation": "relu"}, "name": "activation_56", "inbound_nodes": [[["batch_normalization_56", 0, 0, {}]]]}, {"class_name": "BatchNormalization", "config": {"name": "batch_normalization_27", "trainable": false, "dtype": "float32", "axis": [3], "momentum": 0.99, "epsilon": 0.001, "center": true, "scale": true, "beta_initializer": {"class_name": "Zeros", "config": {}}, "gamma_initializer": {"class_name": "Ones", "config": {}}, "moving_mean_initializer": {"class_name": "Zeros", "config": {}}, "moving_variance_initializer": {"class_name": "Ones", "config": {}}, "beta_regularizer": null, "gamma_regularizer": null, "beta_constraint": null, "gamma_constraint": null}, "name": "batch_normalization_27", "inbound_nodes": [[["conv2d_36", 0, 0, {}]]]}, {"class_name": "Dropout", "config": {"name": "dropout_56", "trainable": false, "dtype": "float32", "rate": 0.1, "noise_shape": null, "seed": null}, "name": "dropout_56", "inbound_nodes": [[["activation_56", 0, 0, {}]]]}, {"class_name": "Conv1D", "config": {"name": "conv1d_33", "trainable": false, "dtype": "float32", "filters": 30, "kernel_size": [7], "strides": [1], "padding": "same", "data_format": "channels_last", "dilation_rate": [1], "groups": 1, "activation": "linear", "use_bias": true, "kernel_initializer": {"class_name": "HeUniform", "config": {"seed": null}}, "bias_initializer": {"class_name": "Zeros", "config": {}}, "kernel_regularizer": null, "bias_regularizer": null, "activity_regularizer": null, "kernel_constraint": null, "bias_constraint": null}, "name": "conv1d_33", "inbound_nodes": [[["dropout_54", 0, 0, {}]]]}, {"class_name": "Activation", "config": {"name": "activation_27", "trainable": false, "dtype": "float32", "activation": "relu"}, "name": "activation_27", "inbound_nodes": [[["batch_normalization_27", 0, 0, {}]]]}, {"class_name": "Add", "config": {"name": "ts_E4", "trainable": false, "dtype": "float32"}, "name": "ts_E4", "inbound_nodes": [[["dropout_56", 0, 0, {}], ["conv1d_33", 0, 0, {}]]]}, {"class_name": "Dropout", "config": {"name": "dropout_27", "trainable": false, "dtype": "float32", "rate": 0.1, "noise_shape": null, "seed": null}, "name": "dropout_27", "inbound_nodes": [[["activation_27", 0, 0, {}]]]}, {"class_name": "Conv1D", "config": {"name": "conv1d_36", "trainable": false, "dtype": "float32", "filters": 30, "kernel_size": [7], "strides": [1], "padding": "same", "data_format": "channels_last", "dilation_rate": [1], "groups": 1, "activation": "linear", "use_bias": true, "kernel_initializer": {"class_name": "HeUniform", "config": {"seed": null}}, "bias_initializer": {"class_name": "Zeros", "config": {}}, "kernel_regularizer": null, "bias_regularizer": null, "activity_regularizer": null, "kernel_constraint": null, "bias_constraint": null}, "name": "conv1d_36", "inbound_nodes": [[["ts_E4", 0, 0, {}]]]}, {"class_name": "Add", "config": {"name": "add_23", "trainable": false, "dtype": "float32"}, "name": "add_23", "inbound_nodes": [[["dropout_27", 0, 0, {}], ["dropout_27", 0, 0, {}]]]}, {"class_name": "BatchNormalization", "config": {"name": "batch_normalization_57", "trainable": false, "dtype": "float32", "axis": [2], "momentum": 0.99, "epsilon": 0.001, "center": true, "scale": true, "beta_initializer": {"class_name": "Zeros", "config": {}}, "gamma_initializer": {"class_name": "Ones", "config": {}}, "moving_mean_initializer": {"class_name": "Zeros", "config": {}}, "moving_variance_initializer": {"class_name": "Ones", "config": {}}, "beta_regularizer": null, "gamma_regularizer": null, "beta_constraint": null, "gamma_constraint": null}, "name": "batch_normalization_57", "inbound_nodes": [[["conv1d_36", 0, 0, {}]]]}, {"class_name": "Conv2D", "config": {"name": "conv2d_38", "trainable": false, "dtype": "float32", "filters": 30, "kernel_size": [3, 3], "strides": [1, 1], "padding": "same", "data_format": "channels_last", "dilation_rate": [1, 1], "groups": 1, "activation": "linear", "use_bias": true, "kernel_initializer": {"class_name": "GlorotUniform", "config": {"seed": null}}, "bias_initializer": {"class_name": "Zeros", "config": {}}, "kernel_regularizer": null, "bias_regularizer": null, "activity_regularizer": null, "kernel_constraint": null, "bias_constraint": null}, "name": "conv2d_38", "inbound_nodes": [[["add_23", 0, 0, {}]]]}, {"class_name": "Activation", "config": {"name": "activation_57", "trainable": false, "dtype": "float32", "activation": "relu"}, "name": "activation_57", "inbound_nodes": [[["batch_normalization_57", 0, 0, {}]]]}, {"class_name": "BatchNormalization", "config": {"name": "batch_normalization_28", "trainable": false, "dtype": "float32", "axis": [3], "momentum": 0.99, "epsilon": 0.001, "center": true, "scale": true, "beta_initializer": {"class_name": "Zeros", "config": {}}, "gamma_initializer": {"class_name": "Ones", "config": {}}, "moving_mean_initializer": {"class_name": "Zeros", "config": {}}, "moving_variance_initializer": {"class_name": "Ones", "config": {}}, "beta_regularizer": null, "gamma_regularizer": null, "beta_constraint": null, "gamma_constraint": null}, "name": "batch_normalization_28", "inbound_nodes": [[["conv2d_38", 0, 0, {}]]]}, {"class_name": "Dropout", "config": {"name": "dropout_57", "trainable": false, "dtype": "float32", "rate": 0.1, "noise_shape": null, "seed": null}, "name": "dropout_57", "inbound_nodes": [[["activation_57", 0, 0, {}]]]}, {"class_name": "Activation", "config": {"name": "activation_28", "trainable": false, "dtype": "float32", "activation": "relu"}, "name": "activation_28", "inbound_nodes": [[["batch_normalization_28", 0, 0, {}]]]}, {"class_name": "Add", "config": {"name": "add_43", "trainable": false, "dtype": "float32"}, "name": "add_43", "inbound_nodes": [[["dropout_57", 0, 0, {}], ["dropout_57", 0, 0, {}]]]}, {"class_name": "Dropout", "config": {"name": "dropout_28", "trainable": false, "dtype": "float32", "rate": 0.1, "noise_shape": null, "seed": null}, "name": "dropout_28", "inbound_nodes": [[["activation_28", 0, 0, {}]]]}, {"class_name": "Conv1D", "config": {"name": "conv1d_38", "trainable": false, "dtype": "float32", "filters": 30, "kernel_size": [7], "strides": [1], "padding": "same", "data_format": "channels_last", "dilation_rate": [1], "groups": 1, "activation": "linear", "use_bias": true, "kernel_initializer": {"class_name": "HeUniform", "config": {"seed": null}}, "bias_initializer": {"class_name": "Zeros", "config": {}}, "kernel_regularizer": null, "bias_regularizer": null, "activity_regularizer": null, "kernel_constraint": null, "bias_constraint": null}, "name": "conv1d_38", "inbound_nodes": [[["add_43", 0, 0, {}]]]}, {"class_name": "Add", "config": {"name": "add_24", "trainable": false, "dtype": "float32"}, "name": "add_24", "inbound_nodes": [[["dropout_28", 0, 0, {}], ["dropout_27", 0, 0, {}]]]}, {"class_name": "BatchNormalization", "config": {"name": "batch_normalization_58", "trainable": false, "dtype": "float32", "axis": [2], "momentum": 0.99, "epsilon": 0.001, "center": true, "scale": true, "beta_initializer": {"class_name": "Zeros", "config": {}}, "gamma_initializer": {"class_name": "Ones", "config": {}}, "moving_mean_initializer": {"class_name": "Zeros", "config": {}}, "moving_variance_initializer": {"class_name": "Ones", "config": {}}, "beta_regularizer": null, "gamma_regularizer": null, "beta_constraint": null, "gamma_constraint": null}, "name": "batch_normalization_58", "inbound_nodes": [[["conv1d_38", 0, 0, {}]]]}, {"class_name": "Conv2D", "config": {"name": "conv2d_39", "trainable": false, "dtype": "float32", "filters": 30, "kernel_size": [3, 3], "strides": [1, 1], "padding": "same", "data_format": "channels_last", "dilation_rate": [1, 1], "groups": 1, "activation": "linear", "use_bias": true, "kernel_initializer": {"class_name": "GlorotUniform", "config": {"seed": null}}, "bias_initializer": {"class_name": "Zeros", "config": {}}, "kernel_regularizer": null, "bias_regularizer": null, "activity_regularizer": null, "kernel_constraint": null, "bias_constraint": null}, "name": "conv2d_39", "inbound_nodes": [[["add_24", 0, 0, {}]]]}, {"class_name": "Activation", "config": {"name": "activation_58", "trainable": false, "dtype": "float32", "activation": "relu"}, "name": "activation_58", "inbound_nodes": [[["batch_normalization_58", 0, 0, {}]]]}, {"class_name": "BatchNormalization", "config": {"name": "batch_normalization_29", "trainable": false, "dtype": "float32", "axis": [3], "momentum": 0.99, "epsilon": 0.001, "center": true, "scale": true, "beta_initializer": {"class_name": "Zeros", "config": {}}, "gamma_initializer": {"class_name": "Ones", "config": {}}, "moving_mean_initializer": {"class_name": "Zeros", "config": {}}, "moving_variance_initializer": {"class_name": "Ones", "config": {}}, "beta_regularizer": null, "gamma_regularizer": null, "beta_constraint": null, "gamma_constraint": null}, "name": "batch_normalization_29", "inbound_nodes": [[["conv2d_39", 0, 0, {}]]]}, {"class_name": "Dropout", "config": {"name": "dropout_58", "trainable": false, "dtype": "float32", "rate": 0.1, "noise_shape": null, "seed": null}, "name": "dropout_58", "inbound_nodes": [[["activation_58", 0, 0, {}]]]}, {"class_name": "Activation", "config": {"name": "activation_29", "trainable": false, "dtype": "float32", "activation": "relu"}, "name": "activation_29", "inbound_nodes": [[["batch_normalization_29", 0, 0, {}]]]}, {"class_name": "Add", "config": {"name": "add_44", "trainable": false, "dtype": "float32"}, "name": "add_44", "inbound_nodes": [[["dropout_58", 0, 0, {}], ["dropout_57", 0, 0, {}]]]}, {"class_name": "Dropout", "config": {"name": "dropout_29", "trainable": false, "dtype": "float32", "rate": 0.1, "noise_shape": null, "seed": null}, "name": "dropout_29", "inbound_nodes": [[["activation_29", 0, 0, {}]]]}, {"class_name": "Conv2D", "config": {"name": "conv2d_37", "trainable": false, "dtype": "float32", "filters": 30, "kernel_size": [1, 1], "strides": [1, 1], "padding": "valid", "data_format": "channels_last", "dilation_rate": [1, 1], "groups": 1, "activation": "linear", "use_bias": true, "kernel_initializer": {"class_name": "GlorotUniform", "config": {"seed": null}}, "bias_initializer": {"class_name": "Zeros", "config": {}}, "kernel_regularizer": null, "bias_regularizer": null, "activity_regularizer": null, "kernel_constraint": null, "bias_constraint": null}, "name": "conv2d_37", "inbound_nodes": [[["dropout_27", 0, 0, {}]]]}, {"class_name": "Conv1D", "config": {"name": "conv1d_39", "trainable": false, "dtype": "float32", "filters": 30, "kernel_size": [7], "strides": [1], "padding": "same", "data_format": "channels_last", "dilation_rate": [1], "groups": 1, "activation": "linear", "use_bias": true, "kernel_initializer": {"class_name": "HeUniform", "config": {"seed": null}}, "bias_initializer": {"class_name": "Zeros", "config": {}}, "kernel_regularizer": null, "bias_regularizer": null, "activity_regularizer": null, "kernel_constraint": null, "bias_constraint": null}, "name": "conv1d_39", "inbound_nodes": [[["add_44", 0, 0, {}]]]}, {"class_name": "Add", "config": {"name": "spec_E4", "trainable": false, "dtype": "float32"}, "name": "spec_E4", "inbound_nodes": [[["dropout_29", 0, 0, {}], ["conv2d_37", 0, 0, {}]]]}, {"class_name": "BatchNormalization", "config": {"name": "batch_normalization_59", "trainable": false, "dtype": "float32", "axis": [2], "momentum": 0.99, "epsilon": 0.001, "center": true, "scale": true, "beta_initializer": {"class_name": "Zeros", "config": {}}, "gamma_initializer": {"class_name": "Ones", "config": {}}, "moving_mean_initializer": {"class_name": "Zeros", "config": {}}, "moving_variance_initializer": {"class_name": "Ones", "config": {}}, "beta_regularizer": null, "gamma_regularizer": null, "beta_constraint": null, "gamma_constraint": null}, "name": "batch_normalization_59", "inbound_nodes": [[["conv1d_39", 0, 0, {}]]]}, {"class_name": "TensorFlowOpLayer", "config": {"name": "Transpose", "trainable": false, "dtype": "float32", "node_def": {"name": "Transpose", "op": "Transpose", "input": ["spec_E4/add", "Transpose/perm"], "attr": {"T": {"type": "DT_FLOAT"}, "Tperm": {"type": "DT_INT32"}}}, "constants": {"1": [0, 3, 2, 1]}}, "name": "tf_op_layer_Transpose", "inbound_nodes": [[["spec_E4", 0, 0, {}]]]}, {"class_name": "Activation", "config": {"name": "activation_59", "trainable": false, "dtype": "float32", "activation": "relu"}, "name": "activation_59", "inbound_nodes": [[["batch_normalization_59", 0, 0, {}]]]}, {"class_name": "TensorFlowOpLayer", "config": {"name": "Squeeze", "trainable": false, "dtype": "float32", "node_def": {"name": "Squeeze", "op": "Squeeze", "input": ["Transpose"], "attr": {"T": {"type": "DT_FLOAT"}, "squeeze_dims": {"list": {"i": ["-1"]}}}}, "constants": {}}, "name": "tf_op_layer_Squeeze", "inbound_nodes": [[["tf_op_layer_Transpose", 0, 0, {}]]]}, {"class_name": "Dropout", "config": {"name": "dropout_59", "trainable": false, "dtype": "float32", "rate": 0.1, "noise_shape": null, "seed": null}, "name": "dropout_59", "inbound_nodes": [[["activation_59", 0, 0, {}]]]}, {"class_name": "Conv1D", "config": {"name": "conv1d_37", "trainable": false, "dtype": "float32", "filters": 30, "kernel_size": [7], "strides": [1], "padding": "same", "data_format": "channels_last", "dilation_rate": [1], "groups": 1, "activation": "linear", "use_bias": true, "kernel_initializer": {"class_name": "HeUniform", "config": {"seed": null}}, "bias_initializer": {"class_name": "Zeros", "config": {}}, "kernel_regularizer": null, "bias_regularizer": null, "activity_regularizer": null, "kernel_constraint": null, "bias_constraint": null}, "name": "conv1d_37", "inbound_nodes": [[["dropout_57", 0, 0, {}]]]}, {"class_name": "Dense", "config": {"name": "dense", "trainable": false, "dtype": "float32", "units": 10, "activation": "linear", "use_bias": true, "kernel_initializer": {"class_name": "GlorotUniform", "config": {"seed": null}}, "bias_initializer": {"class_name": "Zeros", "config": {}}, "kernel_regularizer": null, "bias_regularizer": null, "activity_regularizer": null, "kernel_constraint": null, "bias_constraint": null}, "name": "dense", "inbound_nodes": [[["tf_op_layer_Squeeze", 0, 0, {}]]]}, {"class_name": "Add", "config": {"name": "ts_exp_E5", "trainable": false, "dtype": "float32"}, "name": "ts_exp_E5", "inbound_nodes": [[["dropout_59", 0, 0, {}], ["conv1d_37", 0, 0, {}]]]}, {"class_name": "TensorFlowOpLayer", "config": {"name": "Transpose_1", "trainable": false, "dtype": "float32", "node_def": {"name": "Transpose_1", "op": "Transpose", "input": ["dense/BiasAdd", "Transpose_1/perm"], "attr": {"T": {"type": "DT_FLOAT"}, "Tperm": {"type": "DT_INT32"}}}, "constants": {"1": [0, 2, 1]}}, "name": "tf_op_layer_Transpose_1", "inbound_nodes": [[["dense", 0, 0, {}]]]}, {"class_name": "Concatenate", "config": {"name": "concatenate", "trainable": false, "dtype": "float32", "axis": -1}, "name": "concatenate", "inbound_nodes": [[["ts_exp_E5", 0, 0, {}], ["tf_op_layer_Transpose_1", 0, 0, {}]]]}, {"class_name": "Conv1D", "config": {"name": "conv1d_40", "trainable": false, "dtype": "float32", "filters": 30, "kernel_size": [1], "strides": [1], "padding": "valid", "data_format": "channels_last", "dilation_rate": [1], "groups": 1, "activation": "linear", "use_bias": true, "kernel_initializer": {"class_name": "GlorotUniform", "config": {"seed": null}}, "bias_initializer": {"class_name": "Zeros", "config": {}}, "kernel_regularizer": null, "bias_regularizer": null, "activity_regularizer": null, "kernel_constraint": null, "bias_constraint": null}, "name": "conv1d_40", "inbound_nodes": [[["concatenate", 0, 0, {}]]]}, {"class_name": "Conv1D", "config": {"name": "conv1d_41", "trainable": false, "dtype": "float32", "filters": 10, "kernel_size": [30], "strides": [1], "padding": "same", "data_format": "channels_last", "dilation_rate": [1], "groups": 1, "activation": "linear", "use_bias": true, "kernel_initializer": {"class_name": "HeUniform", "config": {"seed": null}}, "bias_initializer": {"class_name": "Zeros", "config": {}}, "kernel_regularizer": null, "bias_regularizer": null, "activity_regularizer": null, "kernel_constraint": null, "bias_constraint": null}, "name": "conv1d_41", "inbound_nodes": [[["conv1d_40", 0, 0, {}]]]}, {"class_name": "Conv1D", "config": {"name": "conv1d_42", "trainable": false, "dtype": "float32", "filters": 10, "kernel_size": [30], "strides": [1], "padding": "same", "data_format": "channels_last", "dilation_rate": [1], "groups": 1, "activation": "linear", "use_bias": true, "kernel_initializer": {"class_name": "HeUniform", "config": {"seed": null}}, "bias_initializer": {"class_name": "Zeros", "config": {}}, "kernel_regularizer": null, "bias_regularizer": null, "activity_regularizer": null, "kernel_constraint": null, "bias_constraint": null}, "name": "conv1d_42", "inbound_nodes": [[["ts_exp_E5", 0, 0, {}]]]}, {"class_name": "BatchNormalization", "config": {"name": "batch_normalization_60", "trainable": false, "dtype": "float32", "axis": [2], "momentum": 0.99, "epsilon": 0.001, "center": true, "scale": true, "beta_initializer": {"class_name": "Zeros", "config": {}}, "gamma_initializer": {"class_name": "Ones", "config": {}}, "moving_mean_initializer": {"class_name": "Zeros", "config": {}}, "moving_variance_initializer": {"class_name": "Ones", "config": {}}, "beta_regularizer": null, "gamma_regularizer": null, "beta_constraint": null, "gamma_constraint": null}, "name": "batch_normalization_60", "inbound_nodes": [[["conv1d_41", 0, 0, {}]]]}, {"class_name": "BatchNormalization", "config": {"name": "batch_normalization_61", "trainable": false, "dtype": "float32", "axis": [2], "momentum": 0.99, "epsilon": 0.001, "center": true, "scale": true, "beta_initializer": {"class_name": "Zeros", "config": {}}, "gamma_initializer": {"class_name": "Ones", "config": {}}, "moving_mean_initializer": {"class_name": "Zeros", "config": {}}, "moving_variance_initializer": {"class_name": "Ones", "config": {}}, "beta_regularizer": null, "gamma_regularizer": null, "beta_constraint": null, "gamma_constraint": null}, "name": "batch_normalization_61", "inbound_nodes": [[["conv1d_42", 0, 0, {}]]]}, {"class_name": "Add", "config": {"name": "add_45", "trainable": false, "dtype": "float32"}, "name": "add_45", "inbound_nodes": [[["batch_normalization_60", 0, 0, {}], ["batch_normalization_61", 0, 0, {}]]]}, {"class_name": "Activation", "config": {"name": "activation_60", "trainable": false, "dtype": "float32", "activation": "relu"}, "name": "activation_60", "inbound_nodes": [[["add_45", 0, 0, {}]]]}, {"class_name": "Conv1D", "config": {"name": "conv1d_43", "trainable": false, "dtype": "float32", "filters": 30, "kernel_size": [1], "strides": [1], "padding": "same", "data_format": "channels_last", "dilation_rate": [1], "groups": 1, "activation": "linear", "use_bias": true, "kernel_initializer": {"class_name": "HeUniform", "config": {"seed": null}}, "bias_initializer": {"class_name": "Zeros", "config": {}}, "kernel_regularizer": null, "bias_regularizer": null, "activity_regularizer": null, "kernel_constraint": null, "bias_constraint": null}, "name": "conv1d_43", "inbound_nodes": [[["activation_60", 0, 0, {}]]]}, {"class_name": "BatchNormalization", "config": {"name": "batch_normalization_62", "trainable": false, "dtype": "float32", "axis": [2], "momentum": 0.99, "epsilon": 0.001, "center": true, "scale": true, "beta_initializer": {"class_name": "Zeros", "config": {}}, "gamma_initializer": {"class_name": "Ones", "config": {}}, "moving_mean_initializer": {"class_name": "Zeros", "config": {}}, "moving_variance_initializer": {"class_name": "Ones", "config": {}}, "beta_regularizer": null, "gamma_regularizer": null, "beta_constraint": null, "gamma_constraint": null}, "name": "batch_normalization_62", "inbound_nodes": [[["conv1d_43", 0, 0, {}]]]}, {"class_name": "Activation", "config": {"name": "activation_61", "trainable": false, "dtype": "float32", "activation": "sigmoid"}, "name": "activation_61", "inbound_nodes": [[["batch_normalization_62", 0, 0, {}]]]}, {"class_name": "Multiply", "config": {"name": "multiply", "trainable": false, "dtype": "float32"}, "name": "multiply", "inbound_nodes": [[["conv1d_40", 0, 0, {}], ["activation_61", 0, 0, {}]]]}, {"class_name": "Add", "config": {"name": "add_46", "trainable": false, "dtype": "float32"}, "name": "add_46", "inbound_nodes": [[["multiply", 0, 0, {}], ["ts_exp_E5", 0, 0, {}]]]}, {"class_name": "BatchNormalization", "config": {"name": "CrossFusion_init", "trainable": false, "dtype": "float32", "axis": [2], "momentum": 0.99, "epsilon": 0.001, "center": true, "scale": true, "beta_initializer": {"class_name": "Zeros", "config": {}}, "gamma_initializer": {"class_name": "Ones", "config": {}}, "moving_mean_initializer": {"class_name": "Zeros", "config": {}}, "moving_variance_initializer": {"class_name": "Ones", "config": {}}, "beta_regularizer": null, "gamma_regularizer": null, "beta_constraint": null, "gamma_constraint": null}, "name": "CrossFusion_init", "inbound_nodes": [[["add_46", 0, 0, {}]]]}, {"class_name": "UpSampling1D", "config": {"name": "up_sampling1d", "trainable": false, "dtype": "float32", "size": 5}, "name": "up_sampling1d", "inbound_nodes": [[["CrossFusion_init", 0, 0, {}]]]}, {"class_name": "Conv1D", "config": {"name": "conv1d_44", "trainable": false, "dtype": "float32", "filters": 30, "kernel_size": [7], "strides": [1], "padding": "same", "data_format": "channels_last", "dilation_rate": [1], "groups": 1, "activation": "linear", "use_bias": true, "kernel_initializer": {"class_name": "HeUniform", "config": {"seed": null}}, "bias_initializer": {"class_name": "Zeros", "config": {}}, "kernel_regularizer": null, "bias_regularizer": null, "activity_regularizer": null, "kernel_constraint": null, "bias_constraint": null}, "name": "conv1d_44", "inbound_nodes": [[["up_sampling1d", 0, 0, {}]]]}, {"class_name": "BatchNormalization", "config": {"name": "batch_normalization_63", "trainable": false, "dtype": "float32", "axis": [2], "momentum": 0.99, "epsilon": 0.001, "center": true, "scale": true, "beta_initializer": {"class_name": "Zeros", "config": {}}, "gamma_initializer": {"class_name": "Ones", "config": {}}, "moving_mean_initializer": {"class_name": "Zeros", "config": {}}, "moving_variance_initializer": {"class_name": "Ones", "config": {}}, "beta_regularizer": null, "gamma_regularizer": null, "beta_constraint": null, "gamma_constraint": null}, "name": "batch_normalization_63", "inbound_nodes": [[["conv1d_44", 0, 0, {}]]]}, {"class_name": "Activation", "config": {"name": "activation_62", "trainable": false, "dtype": "float32", "activation": "relu"}, "name": "activation_62", "inbound_nodes": [[["batch_normalization_63", 0, 0, {}]]]}, {"class_name": "Dropout", "config": {"name": "dropout_60", "trainable": false, "dtype": "float32", "rate": 0.1, "noise_shape": null, "seed": null}, "name": "dropout_60", "inbound_nodes": [[["activation_62", 0, 0, {}]]]}, {"class_name": "Cropping1D", "config": {"name": "cropping1d", "trainable": false, "dtype": "float32", "cropping": [20, 20]}, "name": "cropping1d", "inbound_nodes": [[["dropout_60", 0, 0, {}]]]}, {"class_name": "Concatenate", "config": {"name": "concatenate_1", "trainable": false, "dtype": "float32", "axis": -1}, "name": "concatenate_1", "inbound_nodes": [[["ts_exp_E5", 0, 0, {}], ["cropping1d", 0, 0, {}]]]}, {"class_name": "Conv1D", "config": {"name": "conv1d_45", "trainable": false, "dtype": "float32", "filters": 30, "kernel_size": [7], "strides": [1], "padding": "same", "data_format": "channels_last", "dilation_rate": [1], "groups": 1, "activation": "linear", "use_bias": true, "kernel_initializer": {"class_name": "HeUniform", "config": {"seed": null}}, "bias_initializer": {"class_name": "Zeros", "config": {}}, "kernel_regularizer": null, "bias_regularizer": null, "activity_regularizer": null, "kernel_constraint": null, "bias_constraint": null}, "name": "conv1d_45", "inbound_nodes": [[["concatenate_1", 0, 0, {}]]]}, {"class_name": "BatchNormalization", "config": {"name": "batch_normalization_64", "trainable": false, "dtype": "float32", "axis": [2], "momentum": 0.99, "epsilon": 0.001, "center": true, "scale": true, "beta_initializer": {"class_name": "Zeros", "config": {}}, "gamma_initializer": {"class_name": "Ones", "config": {}}, "moving_mean_initializer": {"class_name": "Zeros", "config": {}}, "moving_variance_initializer": {"class_name": "Ones", "config": {}}, "beta_regularizer": null, "gamma_regularizer": null, "beta_constraint": null, "gamma_constraint": null}, "name": "batch_normalization_64", "inbound_nodes": [[["conv1d_45", 0, 0, {}]]]}, {"class_name": "Activation", "config": {"name": "activation_63", "trainable": false, "dtype": "float32", "activation": "relu"}, "name": "activation_63", "inbound_nodes": [[["batch_normalization_64", 0, 0, {}]]]}, {"class_name": "Dropout", "config": {"name": "dropout_61", "trainable": false, "dtype": "float32", "rate": 0.1, "noise_shape": null, "seed": null}, "name": "dropout_61", "inbound_nodes": [[["activation_63", 0, 0, {}]]]}, {"class_name": "Add", "config": {"name": "add_47", "trainable": false, "dtype": "float32"}, "name": "add_47", "inbound_nodes": [[["dropout_61", 0, 0, {}], ["dropout_61", 0, 0, {}]]]}, {"class_name": "Conv1D", "config": {"name": "conv1d_47", "trainable": false, "dtype": "float32", "filters": 30, "kernel_size": [7], "strides": [1], "padding": "same", "data_format": "channels_last", "dilation_rate": [1], "groups": 1, "activation": "linear", "use_bias": true, "kernel_initializer": {"class_name": "HeUniform", "config": {"seed": null}}, "bias_initializer": {"class_name": "Zeros", "config": {}}, "kernel_regularizer": null, "bias_regularizer": null, "activity_regularizer": null, "kernel_constraint": null, "bias_constraint": null}, "name": "conv1d_47", "inbound_nodes": [[["add_47", 0, 0, {}]]]}, {"class_name": "BatchNormalization", "config": {"name": "batch_normalization_65", "trainable": false, "dtype": "float32", "axis": [2], "momentum": 0.99, "epsilon": 0.001, "center": true, "scale": true, "beta_initializer": {"class_name": "Zeros", "config": {}}, "gamma_initializer": {"class_name": "Ones", "config": {}}, "moving_mean_initializer": {"class_name": "Zeros", "config": {}}, "moving_variance_initializer": {"class_name": "Ones", "config": {}}, "beta_regularizer": null, "gamma_regularizer": null, "beta_constraint": null, "gamma_constraint": null}, "name": "batch_normalization_65", "inbound_nodes": [[["conv1d_47", 0, 0, {}]]]}, {"class_name": "Activation", "config": {"name": "activation_64", "trainable": false, "dtype": "float32", "activation": "relu"}, "name": "activation_64", "inbound_nodes": [[["batch_normalization_65", 0, 0, {}]]]}, {"class_name": "Dropout", "config": {"name": "dropout_62", "trainable": false, "dtype": "float32", "rate": 0.1, "noise_shape": null, "seed": null}, "name": "dropout_62", "inbound_nodes": [[["activation_64", 0, 0, {}]]]}, {"class_name": "Add", "config": {"name": "add_48", "trainable": false, "dtype": "float32"}, "name": "add_48", "inbound_nodes": [[["dropout_62", 0, 0, {}], ["dropout_61", 0, 0, {}]]]}, {"class_name": "Conv1D", "config": {"name": "conv1d_48", "trainable": false, "dtype": "float32", "filters": 30, "kernel_size": [7], "strides": [1], "padding": "same", "data_format": "channels_last", "dilation_rate": [1], "groups": 1, "activation": "linear", "use_bias": true, "kernel_initializer": {"class_name": "HeUniform", "config": {"seed": null}}, "bias_initializer": {"class_name": "Zeros", "config": {}}, "kernel_regularizer": null, "bias_regularizer": null, "activity_regularizer": null, "kernel_constraint": null, "bias_constraint": null}, "name": "conv1d_48", "inbound_nodes": [[["add_48", 0, 0, {}]]]}, {"class_name": "BatchNormalization", "config": {"name": "batch_normalization_66", "trainable": false, "dtype": "float32", "axis": [2], "momentum": 0.99, "epsilon": 0.001, "center": true, "scale": true, "beta_initializer": {"class_name": "Zeros", "config": {}}, "gamma_initializer": {"class_name": "Ones", "config": {}}, "moving_mean_initializer": {"class_name": "Zeros", "config": {}}, "moving_variance_initializer": {"class_name": "Ones", "config": {}}, "beta_regularizer": null, "gamma_regularizer": null, "beta_constraint": null, "gamma_constraint": null}, "name": "batch_normalization_66", "inbound_nodes": [[["conv1d_48", 0, 0, {}]]]}, {"class_name": "Activation", "config": {"name": "activation_65", "trainable": false, "dtype": "float32", "activation": "relu"}, "name": "activation_65", "inbound_nodes": [[["batch_normalization_66", 0, 0, {}]]]}, {"class_name": "Dropout", "config": {"name": "dropout_63", "trainable": false, "dtype": "float32", "rate": 0.1, "noise_shape": null, "seed": null}, "name": "dropout_63", "inbound_nodes": [[["activation_65", 0, 0, {}]]]}, {"class_name": "Conv1D", "config": {"name": "conv1d_46", "trainable": false, "dtype": "float32", "filters": 30, "kernel_size": [7], "strides": [1], "padding": "same", "data_format": "channels_last", "dilation_rate": [1], "groups": 1, "activation": "linear", "use_bias": true, "kernel_initializer": {"class_name": "HeUniform", "config": {"seed": null}}, "bias_initializer": {"class_name": "Zeros", "config": {}}, "kernel_regularizer": null, "bias_regularizer": null, "activity_regularizer": null, "kernel_constraint": null, "bias_constraint": null}, "name": "conv1d_46", "inbound_nodes": [[["dropout_61", 0, 0, {}]]]}, {"class_name": "Add", "config": {"name": "ts_D0", "trainable": false, "dtype": "float32"}, "name": "ts_D0", "inbound_nodes": [[["dropout_63", 0, 0, {}], ["conv1d_46", 0, 0, {}]]]}, {"class_name": "UpSampling1D", "config": {"name": "up_sampling1d_1", "trainable": false, "dtype": "float32", "size": 5}, "name": "up_sampling1d_1", "inbound_nodes": [[["ts_D0", 0, 0, {}]]]}, {"class_name": "Conv1D", "config": {"name": "conv1d_49", "trainable": false, "dtype": "float32", "filters": 24, "kernel_size": [7], "strides": [1], "padding": "same", "data_format": "channels_last", "dilation_rate": [1], "groups": 1, "activation": "linear", "use_bias": true, "kernel_initializer": {"class_name": "HeUniform", "config": {"seed": null}}, "bias_initializer": {"class_name": "Zeros", "config": {}}, "kernel_regularizer": null, "bias_regularizer": null, "activity_regularizer": null, "kernel_constraint": null, "bias_constraint": null}, "name": "conv1d_49", "inbound_nodes": [[["up_sampling1d_1", 0, 0, {}]]]}, {"class_name": "BatchNormalization", "config": {"name": "batch_normalization_67", "trainable": false, "dtype": "float32", "axis": [2], "momentum": 0.99, "epsilon": 0.001, "center": true, "scale": true, "beta_initializer": {"class_name": "Zeros", "config": {}}, "gamma_initializer": {"class_name": "Ones", "config": {}}, "moving_mean_initializer": {"class_name": "Zeros", "config": {}}, "moving_variance_initializer": {"class_name": "Ones", "config": {}}, "beta_regularizer": null, "gamma_regularizer": null, "beta_constraint": null, "gamma_constraint": null}, "name": "batch_normalization_67", "inbound_nodes": [[["conv1d_49", 0, 0, {}]]]}, {"class_name": "Activation", "config": {"name": "activation_66", "trainable": false, "dtype": "float32", "activation": "relu"}, "name": "activation_66", "inbound_nodes": [[["batch_normalization_67", 0, 0, {}]]]}, {"class_name": "Dropout", "config": {"name": "dropout_64", "trainable": false, "dtype": "float32", "rate": 0.1, "noise_shape": null, "seed": null}, "name": "dropout_64", "inbound_nodes": [[["activation_66", 0, 0, {}]]]}, {"class_name": "Cropping1D", "config": {"name": "cropping1d_1", "trainable": false, "dtype": "float32", "cropping": [1, 1]}, "name": "cropping1d_1", "inbound_nodes": [[["dropout_64", 0, 0, {}]]]}, {"class_name": "Concatenate", "config": {"name": "concatenate_2", "trainable": false, "dtype": "float32", "axis": -1}, "name": "concatenate_2", "inbound_nodes": [[["ts_exp_E3", 0, 0, {}], ["cropping1d_1", 0, 0, {}]]]}, {"class_name": "Conv1D", "config": {"name": "conv1d_50", "trainable": false, "dtype": "float32", "filters": 24, "kernel_size": [7], "strides": [1], "padding": "same", "data_format": "channels_last", "dilation_rate": [1], "groups": 1, "activation": "linear", "use_bias": true, "kernel_initializer": {"class_name": "HeUniform", "config": {"seed": null}}, "bias_initializer": {"class_name": "Zeros", "config": {}}, "kernel_regularizer": null, "bias_regularizer": null, "activity_regularizer": null, "kernel_constraint": null, "bias_constraint": null}, "name": "conv1d_50", "inbound_nodes": [[["concatenate_2", 0, 0, {}]]]}, {"class_name": "BatchNormalization", "config": {"name": "batch_normalization_68", "trainable": false, "dtype": "float32", "axis": [2], "momentum": 0.99, "epsilon": 0.001, "center": true, "scale": true, "beta_initializer": {"class_name": "Zeros", "config": {}}, "gamma_initializer": {"class_name": "Ones", "config": {}}, "moving_mean_initializer": {"class_name": "Zeros", "config": {}}, "moving_variance_initializer": {"class_name": "Ones", "config": {}}, "beta_regularizer": null, "gamma_regularizer": null, "beta_constraint": null, "gamma_constraint": null}, "name": "batch_normalization_68", "inbound_nodes": [[["conv1d_50", 0, 0, {}]]]}, {"class_name": "Activation", "config": {"name": "activation_67", "trainable": false, "dtype": "float32", "activation": "relu"}, "name": "activation_67", "inbound_nodes": [[["batch_normalization_68", 0, 0, {}]]]}, {"class_name": "Dropout", "config": {"name": "dropout_65", "trainable": false, "dtype": "float32", "rate": 0.1, "noise_shape": null, "seed": null}, "name": "dropout_65", "inbound_nodes": [[["activation_67", 0, 0, {}]]]}, {"class_name": "Add", "config": {"name": "add_49", "trainable": false, "dtype": "float32"}, "name": "add_49", "inbound_nodes": [[["dropout_65", 0, 0, {}], ["dropout_65", 0, 0, {}]]]}, {"class_name": "Conv1D", "config": {"name": "conv1d_52", "trainable": false, "dtype": "float32", "filters": 24, "kernel_size": [7], "strides": [1], "padding": "same", "data_format": "channels_last", "dilation_rate": [1], "groups": 1, "activation": "linear", "use_bias": true, "kernel_initializer": {"class_name": "HeUniform", "config": {"seed": null}}, "bias_initializer": {"class_name": "Zeros", "config": {}}, "kernel_regularizer": null, "bias_regularizer": null, "activity_regularizer": null, "kernel_constraint": null, "bias_constraint": null}, "name": "conv1d_52", "inbound_nodes": [[["add_49", 0, 0, {}]]]}, {"class_name": "BatchNormalization", "config": {"name": "batch_normalization_69", "trainable": false, "dtype": "float32", "axis": [2], "momentum": 0.99, "epsilon": 0.001, "center": true, "scale": true, "beta_initializer": {"class_name": "Zeros", "config": {}}, "gamma_initializer": {"class_name": "Ones", "config": {}}, "moving_mean_initializer": {"class_name": "Zeros", "config": {}}, "moving_variance_initializer": {"class_name": "Ones", "config": {}}, "beta_regularizer": null, "gamma_regularizer": null, "beta_constraint": null, "gamma_constraint": null}, "name": "batch_normalization_69", "inbound_nodes": [[["conv1d_52", 0, 0, {}]]]}, {"class_name": "Activation", "config": {"name": "activation_68", "trainable": false, "dtype": "float32", "activation": "relu"}, "name": "activation_68", "inbound_nodes": [[["batch_normalization_69", 0, 0, {}]]]}, {"class_name": "Dropout", "config": {"name": "dropout_66", "trainable": false, "dtype": "float32", "rate": 0.1, "noise_shape": null, "seed": null}, "name": "dropout_66", "inbound_nodes": [[["activation_68", 0, 0, {}]]]}, {"class_name": "Add", "config": {"name": "add_50", "trainable": false, "dtype": "float32"}, "name": "add_50", "inbound_nodes": [[["dropout_66", 0, 0, {}], ["dropout_65", 0, 0, {}]]]}, {"class_name": "Conv1D", "config": {"name": "conv1d_53", "trainable": false, "dtype": "float32", "filters": 24, "kernel_size": [7], "strides": [1], "padding": "same", "data_format": "channels_last", "dilation_rate": [1], "groups": 1, "activation": "linear", "use_bias": true, "kernel_initializer": {"class_name": "HeUniform", "config": {"seed": null}}, "bias_initializer": {"class_name": "Zeros", "config": {}}, "kernel_regularizer": null, "bias_regularizer": null, "activity_regularizer": null, "kernel_constraint": null, "bias_constraint": null}, "name": "conv1d_53", "inbound_nodes": [[["add_50", 0, 0, {}]]]}, {"class_name": "BatchNormalization", "config": {"name": "batch_normalization_70", "trainable": false, "dtype": "float32", "axis": [2]…
_name": "Ones", "config": {}}, "moving_mean_initializer": {"class_name": "Zeros", "config": {}}, "moving_variance_initializer": {"class_name": "Ones", "config": {}}, "beta_regularizer": null, "gamma_regularizer": null, "beta_constraint": null, "gamma_constraint": null}, "name": "batch_normalization_89", "inbound_nodes": [[["conv1d_82", 0, 0, {}]]]}, {"class_name": "Activation", "config": {"name": "activation_88", "trainable": true, "dtype": "float32", "activation": "relu"}, "name": "activation_88", "inbound_nodes": [[["batch_normalization_89", 0, 0, {}]]]}, {"class_name": "Dropout", "config": {"name": "dropout_86", "trainable": true, "dtype": "float32", "rate": 0.1, "noise_shape": null, "seed": null}, "name": "dropout_86", "inbound_nodes": [[["activation_88", 0, 0, {}]]]}, {"class_name": "Add", "config": {"name": "add_60", "trainable": true, "dtype": "float32"}, "name": "add_60", "inbound_nodes": [[["dropout_86", 0, 0, {}], ["dropout_86", 0, 0, {}]]]}, {"class_name": "Conv1D", "config": {"name": "conv1d_84", "trainable": true, "dtype": "float32", "filters": 24, "kernel_size": [7], "strides": [1], "padding": "same", "data_format": "channels_last", "dilation_rate": [1], "groups": 1, "activation": "linear", "use_bias": true, "kernel_initializer": {"class_name": "HeUniform", "config": {"seed": null}}, "bias_initializer": {"class_name": "Zeros", "config": {}}, "kernel_regularizer": null, "bias_regularizer": null, "activity_regularizer": null, "kernel_constraint": null, "bias_constraint": null}, "name": "conv1d_84", "inbound_nodes": [[["add_60", 0, 0, {}]]]}, {"class_name": "BatchNormalization", "config": {"name": "batch_normalization_90", "trainable": true, "dtype": "float32", "axis": [2], "momentum": 0.99, "epsilon": 0.001, "center": true, "scale": true, "beta_initializer": {"class_name": "Zeros", "config": {}}, "gamma_initializer": {"class_name": "Ones", "config": {}}, "moving_mean_initializer": {"class_name": "Zeros", "config": {}}, "moving_variance_initializer": {"class_name": "Ones", "config": {}}, "beta_regularizer": null, "gamma_regularizer": null, "beta_constraint": null, "gamma_constraint": null}, "name": "batch_normalization_90", "inbound_nodes": [[["conv1d_84", 0, 0, {}]]]}, {"class_name": "Activation", "config": {"name": "activation_89", "trainable": true, "dtype": "float32", "activation": "relu"}, "name": "activation_89", "inbound_nodes": [[["batch_normalization_90", 0, 0, {}]]]}, {"class_name": "Dropout", "config": {"name": "dropout_87", "trainable": true, "dtype": "float32", "rate": 0.1, "noise_shape": null, "seed": null}, "name": "dropout_87", "inbound_nodes": [[["activation_89", 0, 0, {}]]]}, {"class_name": "Add", "config": {"name": "add_61", "trainable": true, "dtype": "float32"}, "name": "add_61", "inbound_nodes": [[["dropout_87", 0, 0, {}], ["dropout_86", 0, 0, {}]]]}, {"class_name": "Conv1D", "config": {"name": "conv1d_85", "trainable": true, "dtype": "float32", "filters": 24, "kernel_size": [7], "strides": [1], "padding": "same", "data_format": "channels_last", "dilation_rate": [1], "groups": 1, "activation": "linear", "use_bias": true, "kernel_initializer": {"class_name": "HeUniform", "config": {"seed": null}}, "bias_initializer": {"class_name": "Zeros", "config": {}}, "kernel_regularizer": null, "bias_regularizer": null, "activity_regularizer": null, "kernel_constraint": null, "bias_constraint": null}, "name": "conv1d_85", "inbound_nodes": [[["add_61", 0, 0, {}]]]}, {"class_name": "BatchNormalization", "config": {"name": "batch_normalization_91", "trainable": true, "dtype": "float32", "axis": [2], "momentum": 0.99, "epsilon": 0.001, "center": true, "scale": true, "beta_initializer": {"class_name": "Zeros", "config": {}}, "gamma_initializer": {"class_name": "Ones", "config": {}}, "moving_mean_initializer": {"class_name": "Zeros", "config": {}}, "moving_variance_initializer": {"class_name": "Ones", "config": {}}, "beta_regularizer": null, "gamma_regularizer": null, "beta_constraint": null, "gamma_constraint": null}, "name": "batch_normalization_91", "inbound_nodes": [[["conv1d_85", 0, 0, {}]]]}, {"class_name": "Activation", "config": {"name": "activation_90", "trainable": true, "dtype": "float32", "activation": "relu"}, "name": "activation_90", "inbound_nodes": [[["batch_normalization_91", 0, 0, {}]]]}, {"class_name": "Dropout", "config": {"name": "dropout_88", "trainable": true, "dtype": "float32", "rate": 0.1, "noise_shape": null, "seed": null}, "name": "dropout_88", "inbound_nodes": [[["activation_90", 0, 0, {}]]]}, {"class_name": "Add", "config": {"name": "add_62", "trainable": true, "dtype": "float32"}, "name": "add_62", "inbound_nodes": [[["dropout_88", 0, 0, {}], ["dropout_86", 0, 0, {}]]]}, {"class_name": "Conv1D", "config": {"name": "conv1d_86", "trainable": true, "dtype": "float32", "filters": 24, "kernel_size": [7], "strides": [1], "padding": "same", "data_format": "channels_last", "dilation_rate": [1], "groups": 1, "activation": "linear", "use_bias": true, "kernel_initializer": {"class_name": "HeUniform", "config": {"seed": null}}, "bias_initializer": {"class_name": "Zeros", "config": {}}, "kernel_regularizer": null, "bias_regularizer": null, "activity_regularizer": null, "kernel_constraint": null, "bias_constraint": null}, "name": "conv1d_86", "inbound_nodes": [[["add_62", 0, 0, {}]]]}, {"class_name": "BatchNormalization", "config": {"name": "batch_normalization_92", "trainable": true, "dtype": "float32", "axis": [2], "momentum": 0.99, "epsilon": 0.001, "center": true, "scale": true, "beta_initializer": {"class_name": "Zeros", "config": {}}, "gamma_initializer": {"class_name": "Ones", "config": {}}, "moving_mean_initializer": {"class_name": "Zeros", "config": {}}, "moving_variance_initializer": {"class_name": "Ones", "config": {}}, "beta_regularizer": null, "gamma_regularizer": null, "beta_constraint": null, "gamma_constraint": null}, "name": "batch_normalization_92", "inbound_nodes": [[["conv1d_86", 0, 0, {}]]]}, {"class_name": "Activation", "config": {"name": "activation_91", "trainable": true, "dtype": "float32", "activation": "relu"}, "name": "activation_91", "inbound_nodes": [[["batch_normalization_92", 0, 0, {}]]]}, {"class_name": "Dropout", "config": {"name": "dropout_89", "trainable": true, "dtype": "float32", "rate": 0.1, "noise_shape": null, "seed": null}, "name": "dropout_89", "inbound_nodes": [[["activation_91", 0, 0, {}]]]}, {"class_name": "Conv1D", "config": {"name": "conv1d_83", "trainable": true, "dtype": "float32", "filters": 24, "kernel_size": [7], "strides": [1], "padding": "same", "data_format": "channels_last", "dilation_rate": [1], "groups": 1, "activation": "linear", "use_bias": true, "kernel_initializer": {"class_name": "HeUniform", "config": {"seed": null}}, "bias_initializer": {"class_name": "Zeros", "config": {}}, "kernel_regularizer": null, "bias_regularizer": null, "activity_regularizer": null, "kernel_constraint": null, "bias_constraint": null}, "name": "conv1d_83", "inbound_nodes": [[["dropout_86", 0, 0, {}]]]}, {"class_name": "Add", "config": {"name": "D1_net", "trainable": true, "dtype": "float32"}, "name": "D1_net", "inbound_nodes": [[["dropout_89", 0, 0, {}], ["conv1d_83", 0, 0, {}]]]}, {"class_name": "UpSampling1D", "config": {"name": "up_sampling1d_7", "trainable": true, "dtype": "float32", "size": 5}, "name": "up_sampling1d_7", "inbound_nodes": [[["D1_net", 0, 0, {}]]]}, {"class_name": "TensorFlowOpLayer", "config": {"name": "enc_stations_2", "trainable": true, "dtype": "float32", "node_def": {"name": "enc_stations_2", "op": "Reshape", "input": ["functional_3/ts_E2/add", "enc_stations_2/shape"], "attr": {"T": {"type": "DT_FLOAT"}, "Tshape": {"type": "DT_INT32"}}}, "constants": {"1": [64, 4, 240, 18]}}, "name": "tf_op_layer_enc_stations_2", "inbound_nodes": [[["functional_3", 1, 2, {}]]]}, {"class_name": "Conv1D", "config": {"name": "conv1d_87", "trainable": true, "dtype": "float32", "filters": 18, "kernel_size": [7], "strides": [1], "padding": "same", "data_format": "channels_last", "dilation_rate": [1], "groups": 1, "activation": "linear", "use_bias": true, "kernel_initializer": {"class_name": "HeUniform", "config": {"seed": null}}, "bias_initializer": {"class_name": "Zeros", "config": {}}, "kernel_regularizer": null, "bias_regularizer": null, "activity_regularizer": null, "kernel_constraint": null, "bias_constraint": null}, "name": "conv1d_87", "inbound_nodes": [[["up_sampling1d_7", 0, 0, {}]]]}, {"class_name": "TensorFlowOpLayer", "config": {"name": "Transpose_4", "trainable": true, "dtype": "float32", "node_def": {"name": "Transpose_4", "op": "Transpose", "input": ["enc_stations_2", "Transpose_4/perm"], "attr": {"T": {"type": "DT_FLOAT"}, "Tperm": {"type": "DT_INT32"}}}, "constants": {"1": [0, 2, 3, 1]}}, "name": "tf_op_layer_Transpose_4", "inbound_nodes": [[["tf_op_layer_enc_stations_2", 0, 0, {}]]]}, {"class_name": "BatchNormalization", "config": {"name": "batch_normalization_93", "trainable": true, "dtype": "float32", "axis": [2], "momentum": 0.99, "epsilon": 0.001, "center": true, "scale": true, "beta_initializer": {"class_name": "Zeros", "config": {}}, "gamma_initializer": {"class_name": "Ones", "config": {}}, "moving_mean_initializer": {"class_name": "Zeros", "config": {}}, "moving_variance_initializer": {"class_name": "Ones", "config": {}}, "beta_regularizer": null, "gamma_regularizer": null, "beta_constraint": null, "gamma_constraint": null}, "name": "batch_normalization_93", "inbound_nodes": [[["conv1d_87", 0, 0, {}]]]}, {"class_name": "Conv1D", "config": {"name": "conv1d_71", "trainable": true, "dtype": "float32", "filters": 1, "kernel_size": [1], "strides": [1], "padding": "valid", "data_format": "channels_last", "dilation_rate": [1], "groups": 1, "activation": "linear", "use_bias": true, "kernel_initializer": {"class_name": "GlorotUniform", "config": {"seed": null}}, "bias_initializer": {"class_name": "Zeros", "config": {}}, "kernel_regularizer": null, "bias_regularizer": null, "activity_regularizer": null, "kernel_constraint": null, "bias_constraint": null}, "name": "conv1d_71", "inbound_nodes": [[["tf_op_layer_Transpose_4", 0, 0, {}]]]}, {"class_name": "Activation", "config": {"name": "activation_92", "trainable": true, "dtype": "float32", "activation": "relu"}, "name": "activation_92", "inbound_nodes": [[["batch_normalization_93", 0, 0, {}]]]}, {"class_name": "TensorFlowOpLayer", "config": {"name": "Squeeze_3", "trainable": true, "dtype": "float32", "node_def": {"name": "Squeeze_3", "op": "Squeeze", "input": ["conv1d_71/squeeze_batch_dims/Reshape_1"], "attr": {"T": {"type": "DT_FLOAT"}, "squeeze_dims": {"list": {"i": ["-1"]}}}}, "constants": {}}, "name": "tf_op_layer_Squeeze_3", "inbound_nodes": [[["conv1d_71", 0, 0, {}]]]}, {"class_name": "Dropout", "config": {"name": "dropout_90", "trainable": true, "dtype": "float32", "rate": 0.1, "noise_shape": null, "seed": null}, "name": "dropout_90", "inbound_nodes": [[["activation_92", 0, 0, {}]]]}, {"class_name": "Concatenate", "config": {"name": "concatenate_8", "trainable": true, "dtype": "float32", "axis": -1}, "name": "concatenate_8", "inbound_nodes": [[["tf_op_layer_Squeeze_3", 0, 0, {}], ["dropout_90", 0, 0, {}]]]}, {"class_name": "Conv1D", "config": {"name": "conv1d_88", "trainable": true, "dtype": "float32", "filters": 18, "kernel_size": [7], "strides": [1], "padding": "same", "data_format": "channels_last", "dilation_rate": [1], "groups": 1, "activation": "linear", "use_bias": true, "kernel_initializer": {"class_name": "HeUniform", "config": {"seed": null}}, "bias_initializer": {"class_name": "Zeros", "config": {}}, "kernel_regularizer": null, "bias_regularizer": null, "activity_regularizer": null, "kernel_constraint": null, "bias_constraint": null}, "name": "conv1d_88", "inbound_nodes": [[["concatenate_8", 0, 0, {}]]]}, {"class_name": "BatchNormalization", "config": {"name": "batch_normalization_94", "trainable": true, "dtype": "float32", "axis": [2], "momentum": 0.99, "epsilon": 0.001, "center": true, "scale": true, "beta_initializer": {"class_name": "Zeros", "config": {}}, "gamma_initializer": {"class_name": "Ones", "config": {}}, "moving_mean_initializer": {"class_name": "Zeros", "config": {}}, "moving_variance_initializer": {"class_name": "Ones", "config": {}}, "beta_regularizer": null, "gamma_regularizer": null, "beta_constraint": null, "gamma_constraint": null}, "name": "batch_normalization_94", "inbound_nodes": [[["conv1d_88", 0, 0, {}]]]}, {"class_name": "Activation", "config": {"name": "activation_93", "trainable": true, "dtype": "float32", "activation": "relu"}, "name": "activation_93", "inbound_nodes": [[["batch_normalization_94", 0, 0, {}]]]}, {"class_name": "Dropout", "config": {"name": "dropout_91", "trainable": true, "dtype": "float32", "rate": 0.1, "noise_shape": null, "seed": null}, "name": "dropout_91", "inbound_nodes": [[["activation_93", 0, 0, {}]]]}, {"class_name": "Add", "config": {"name": "add_63", "trainable": true, "dtype": "float32"}, "name": "add_63", "inbound_nodes": [[["dropout_91", 0, 0, {}], ["dropout_91", 0, 0, {}]]]}, {"class_name": "Conv1D", "config": {"name": "conv1d_90", "trainable": true, "dtype": "float32", "filters": 18, "kernel_size": [7], "strides": [1], "padding": "same", "data_format": "channels_last", "dilation_rate": [1], "groups": 1, "activation": "linear", "use_bias": true, "kernel_initializer": {"class_name": "HeUniform", "config": {"seed": null}}, "bias_initializer": {"class_name": "Zeros", "config": {}}, "kernel_regularizer": null, "bias_regularizer": null, "activity_regularizer": null, "kernel_constraint": null, "bias_constraint": null}, "name": "conv1d_90", "inbound_nodes": [[["add_63", 0, 0, {}]]]}, {"class_name": "BatchNormalization", "config": {"name": "batch_normalization_95", "trainable": true, "dtype": "float32", "axis": [2], "momentum": 0.99, "epsilon": 0.001, "center": true, "scale": true, "beta_initializer": {"class_name": "Zeros", "config": {}}, "gamma_initializer": {"class_name": "Ones", "config": {}}, "moving_mean_initializer": {"class_name": "Zeros", "config": {}}, "moving_variance_initializer": {"class_name": "Ones", "config": {}}, "beta_regularizer": null, "gamma_regularizer": null, "beta_constraint": null, "gamma_constraint": null}, "name": "batch_normalization_95", "inbound_nodes": [[["conv1d_90", 0, 0, {}]]]}, {"class_name": "Activation", "config": {"name": "activation_94", "trainable": true, "dtype": "float32", "activation": "relu"}, "name": "activation_94", "inbound_nodes": [[["batch_normalization_95", 0, 0, {}]]]}, {"class_name": "Dropout", "config": {"name": "dropout_92", "trainable": true, "dtype": "float32", "rate": 0.1, "noise_shape": null, "seed": null}, "name": "dropout_92", "inbound_nodes": [[["activation_94", 0, 0, {}]]]}, {"class_name": "Add", "config": {"name": "add_64", "trainable": true, "dtype": "float32"}, "name": "add_64", "inbound_nodes": [[["dropout_92", 0, 0, {}], ["dropout_91", 0, 0, {}]]]}, {"class_name": "Conv1D", "config": {"name": "conv1d_91", "trainable": true, "dtype": "float32", "filters": 18, "kernel_size": [7], "strides": [1], "padding": "same", "data_format": "channels_last", "dilation_rate": [1], "groups": 1, "activation": "linear", "use_bias": true, "kernel_initializer": {"class_name": "HeUniform", "config": {"seed": null}}, "bias_initializer": {"class_name": "Zeros", "config": {}}, "kernel_regularizer": null, "bias_regularizer": null, "activity_regularizer": null, "kernel_constraint": null, "bias_constraint": null}, "name": "conv1d_91", "inbound_nodes": [[["add_64", 0, 0, {}]]]}, {"class_name": "BatchNormalization", "config": {"name": "batch_normalization_96", "trainable": true, "dtype": "float32", "axis": [2], "momentum": 0.99, "epsilon": 0.001, "center": true, "scale": true, "beta_initializer": {"class_name": "Zeros", "config": {}}, "gamma_initializer": {"class_name": "Ones", "config": {}}, "moving_mean_initializer": {"class_name": "Zeros", "config": {}}, "moving_variance_initializer": {"class_name": "Ones", "config": {}}, "beta_regularizer": null, "gamma_regularizer": null, "beta_constraint": null, "gamma_constraint": null}, "name": "batch_normalization_96", "inbound_nodes": [[["conv1d_91", 0, 0, {}]]]}, {"class_name": "Activation", "config": {"name": "activation_95", "trainable": true, "dtype": "float32", "activation": "relu"}, "name": "activation_95", "inbound_nodes": [[["batch_normalization_96", 0, 0, {}]]]}, {"class_name": "Dropout", "config": {"name": "dropout_93", "trainable": true, "dtype": "float32", "rate": 0.1, "noise_shape": null, "seed": null}, "name": "dropout_93", "inbound_nodes": [[["activation_95", 0, 0, {}]]]}, {"class_name": "Add", "config": {"name": "add_65", "trainable": true, "dtype": "float32"}, "name": "add_65", "inbound_nodes": [[["dropout_93", 0, 0, {}], ["dropout_91", 0, 0, {}]]]}, {"class_name": "Conv1D", "config": {"name": "conv1d_92", "trainable": true, "dtype": "float32", "filters": 18, "kernel_size": [7], "strides": [1], "padding": "same", "data_format": "channels_last", "dilation_rate": [1], "groups": 1, "activation": "linear", "use_bias": true, "kernel_initializer": {"class_name": "HeUniform", "config": {"seed": null}}, "bias_initializer": {"class_name": "Zeros", "config": {}}, "kernel_regularizer": null, "bias_regularizer": null, "activity_regularizer": null, "kernel_constraint": null, "bias_constraint": null}, "name": "conv1d_92", "inbound_nodes": [[["add_65", 0, 0, {}]]]}, {"class_name": "BatchNormalization", "config": {"name": "batch_normalization_97", "trainable": true, "dtype": "float32", "axis": [2], "momentum": 0.99, "epsilon": 0.001, "center": true, "scale": true, "beta_initializer": {"class_name": "Zeros", "config": {}}, "gamma_initializer": {"class_name": "Ones", "config": {}}, "moving_mean_initializer": {"class_name": "Zeros", "config": {}}, "moving_variance_initializer": {"class_name": "Ones", "config": {}}, "beta_regularizer": null, "gamma_regularizer": null, "beta_constraint": null, "gamma_constraint": null}, "name": "batch_normalization_97", "inbound_nodes": [[["conv1d_92", 0, 0, {}]]]}, {"class_name": "Activation", "config": {"name": "activation_96", "trainable": true, "dtype": "float32", "activation": "relu"}, "name": "activation_96", "inbound_nodes": [[["batch_normalization_97", 0, 0, {}]]]}, {"class_name": "Dropout", "config": {"name": "dropout_94", "trainable": true, "dtype": "float32", "rate": 0.1, "noise_shape": null, "seed": null}, "name": "dropout_94", "inbound_nodes": [[["activation_96", 0, 0, {}]]]}, {"class_name": "Conv1D", "config": {"name": "conv1d_89", "trainable": true, "dtype": "float32", "filters": 18, "kernel_size": [7], "strides": [1], "padding": "same", "data_format": "channels_last", "dilation_rate": [1], "groups": 1, "activation": "linear", "use_bias": true, "kernel_initializer": {"class_name": "HeUniform", "config": {"seed": null}}, "bias_initializer": {"class_name": "Zeros", "config": {}}, "kernel_regularizer": null, "bias_regularizer": null, "activity_regularizer": null, "kernel_constraint": null, "bias_constraint": null}, "name": "conv1d_89", "inbound_nodes": [[["dropout_91", 0, 0, {}]]]}, {"class_name": "Add", "config": {"name": "D2_net", "trainable": true, "dtype": "float32"}, "name": "D2_net", "inbound_nodes": [[["dropout_94", 0, 0, {}], ["conv1d_89", 0, 0, {}]]]}, {"class_name": "UpSampling1D", "config": {"name": "up_sampling1d_8", "trainable": true, "dtype": "float32", "size": 5}, "name": "up_sampling1d_8", "inbound_nodes": [[["D2_net", 0, 0, {}]]]}, {"class_name": "TensorFlowOpLayer", "config": {"name": "enc_stations_1", "trainable": true, "dtype": "float32", "node_def": {"name": "enc_stations_1", "op": "Reshape", "input": ["functional_3/ts_E1/add", "enc_stations_1/shape"], "attr": {"T": {"type": "DT_FLOAT"}, "Tshape": {"type": "DT_INT32"}}}, "constants": {"1": [64, 4, 1200, 12]}}, "name": "tf_op_layer_enc_stations_1", "inbound_nodes": [[["functional_3", 1, 1, {}]]]}, {"class_name": "Conv1D", "config": {"name": "conv1d_93", "trainable": true, "dtype": "float32", "filters": 12, "kernel_size": [7], "strides": [1], "padding": "same", "data_format": "channels_last", "dilation_rate": [1], "groups": 1, "activation": "linear", "use_bias": true, "kernel_initializer": {"class_name": "HeUniform", "config": {"seed": null}}, "bias_initializer": {"class_name": "Zeros", "config": {}}, "kernel_regularizer": null, "bias_regularizer": null, "activity_regularizer": null, "kernel_constraint": null, "bias_constraint": null}, "name": "conv1d_93", "inbound_nodes": [[["up_sampling1d_8", 0, 0, {}]]]}, {"class_name": "TensorFlowOpLayer", "config": {"name": "Transpose_3", "trainable": true, "dtype": "float32", "node_def": {"name": "Transpose_3", "op": "Transpose", "input": ["enc_stations_1", "Transpose_3/perm"], "attr": {"T": {"type": "DT_FLOAT"}, "Tperm": {"type": "DT_INT32"}}}, "constants": {"1": [0, 2, 3, 1]}}, "name": "tf_op_layer_Transpose_3", "inbound_nodes": [[["tf_op_layer_enc_stations_1", 0, 0, {}]]]}, {"class_name": "BatchNormalization", "config": {"name": "batch_normalization_98", "trainable": true, "dtype": "float32", "axis": [2], "momentum": 0.99, "epsilon": 0.001, "center": true, "scale": true, "beta_initializer": {"class_name": "Zeros", "config": {}}, "gamma_initializer": {"class_name": "Ones", "config": {}}, "moving_mean_initializer": {"class_name": "Zeros", "config": {}}, "moving_variance_initializer": {"class_name": "Ones", "config": {}}, "beta_regularizer": null, "gamma_regularizer": null, "beta_constraint": null, "gamma_constraint": null}, "name": "batch_normalization_98", "inbound_nodes": [[["conv1d_93", 0, 0, {}]]]}, {"class_name": "Conv1D", "config": {"name": "conv1d_70", "trainable": true, "dtype": "float32", "filters": 1, "kernel_size": [1], "strides": [1], "padding": "valid", "data_format": "channels_last", "dilation_rate": [1], "groups": 1, "activation": "linear", "use_bias": true, "kernel_initializer": {"class_name": "GlorotUniform", "config": {"seed": null}}, "bias_initializer": {"class_name": "Zeros", "config": {}}, "kernel_regularizer": null, "bias_regularizer": null, "activity_regularizer": null, "kernel_constraint": null, "bias_constraint": null}, "name": "conv1d_70", "inbound_nodes": [[["tf_op_layer_Transpose_3", 0, 0, {}]]]}, {"class_name": "Activation", "config": {"name": "activation_97", "trainable": true, "dtype": "float32", "activation": "relu"}, "name": "activation_97", "inbound_nodes": [[["batch_normalization_98", 0, 0, {}]]]}, {"class_name": "TensorFlowOpLayer", "config": {"name": "Squeeze_2", "trainable": true, "dtype": "float32", "node_def": {"name": "Squeeze_2", "op": "Squeeze", "input": ["conv1d_70/squeeze_batch_dims/Reshape_1"], "attr": {"T": {"type": "DT_FLOAT"}, "squeeze_dims": {"list": {"i": ["-1"]}}}}, "constants": {}}, "name": "tf_op_layer_Squeeze_2", "inbound_nodes": [[["conv1d_70", 0, 0, {}]]]}, {"class_name": "Dropout", "config": {"name": "dropout_95", "trainable": true, "dtype": "float32", "rate": 0.1, "noise_shape": null, "seed": null}, "name": "dropout_95", "inbound_nodes": [[["activation_97", 0, 0, {}]]]}, {"class_name": "Concatenate", "config": {"name": "concatenate_9", "trainable": true, "dtype": "float32", "axis": -1}, "name": "concatenate_9", "inbound_nodes": [[["tf_op_layer_Squeeze_2", 0, 0, {}], ["dropout_95", 0, 0, {}]]]}, {"class_name": "Conv1D", "config": {"name": "conv1d_94", "trainable": true, "dtype": "float32", "filters": 12, "kernel_size": [7], "strides": [1], "padding": "same", "data_format": "channels_last", "dilation_rate": [1], "groups": 1, "activation": "linear", "use_bias": true, "kernel_initializer": {"class_name": "HeUniform", "config": {"seed": null}}, "bias_initializer": {"class_name": "Zeros", "config": {}}, "kernel_regularizer": null, "bias_regularizer": null, "activity_regularizer": null, "kernel_constraint": null, "bias_constraint": null}, "name": "conv1d_94", "inbound_nodes": [[["concatenate_9", 0, 0, {}]]]}, {"class_name": "BatchNormalization", "config": {"name": "batch_normalization_99", "trainable": true, "dtype": "float32", "axis": [2], "momentum": 0.99, "epsilon": 0.001, "center": true, "scale": true, "beta_initializer": {"class_name": "Zeros", "config": {}}, "gamma_initializer": {"class_name": "Ones", "config": {}}, "moving_mean_initializer": {"class_name": "Zeros", "config": {}}, "moving_variance_initializer": {"class_name": "Ones", "config": {}}, "beta_regularizer": null, "gamma_regularizer": null, "beta_constraint": null, "gamma_constraint": null}, "name": "batch_normalization_99", "inbound_nodes": [[["conv1d_94", 0, 0, {}]]]}, {"class_name": "Activation", "config": {"name": "activation_98", "trainable": true, "dtype": "float32", "activation": "relu"}, "name": "activation_98", "inbound_nodes": [[["batch_normalization_99", 0, 0, {}]]]}, {"class_name": "Dropout", "config": {"name": "dropout_96", "trainable": true, "dtype": "float32", "rate": 0.1, "noise_shape": null, "seed": null}, "name": "dropout_96", "inbound_nodes": [[["activation_98", 0, 0, {}]]]}, {"class_name": "Add", "config": {"name": "add_66", "trainable": true, "dtype": "float32"}, "name": "add_66", "inbound_nodes": [[["dropout_96", 0, 0, {}], ["dropout_96", 0, 0, {}]]]}, {"class_name": "Conv1D", "config": {"name": "conv1d_96", "trainable": true, "dtype": "float32", "filters": 12, "kernel_size": [7], "strides": [1], "padding": "same", "data_format": "channels_last", "dilation_rate": [1], "groups": 1, "activation": "linear", "use_bias": true, "kernel_initializer": {"class_name": "HeUniform", "config": {"seed": null}}, "bias_initializer": {"class_name": "Zeros", "config": {}}, "kernel_regularizer": null, "bias_regularizer": null, "activity_regularizer": null, "kernel_constraint": null, "bias_constraint": null}, "name": "conv1d_96", "inbound_nodes": [[["add_66", 0, 0, {}]]]}, {"class_name": "BatchNormalization", "config": {"name": "batch_normalization_100", "trainable": true, "dtype": "float32", "axis": [2], "momentum": 0.99, "epsilon": 0.001, "center": true, "scale": true, "beta_initializer": {"class_name": "Zeros", "config": {}}, "gamma_initializer": {"class_name": "Ones", "config": {}}, "moving_mean_initializer": {"class_name": "Zeros", "config": {}}, "moving_variance_initializer": {"class_name": "Ones", "config": {}}, "beta_regularizer": null, "gamma_regularizer": null, "beta_constraint": null, "gamma_constraint": null}, "name": "batch_normalization_100", "inbound_nodes": [[["conv1d_96", 0, 0, {}]]]}, {"class_name": "Activation", "config": {"name": "activation_99", "trainable": true, "dtype": "float32", "activation": "relu"}, "name": "activation_99", "inbound_nodes": [[["batch_normalization_100", 0, 0, {}]]]}, {"class_name": "Dropout", "config": {"name": "dropout_97", "trainable": true, "dtype": "float32", "rate": 0.1, "noise_shape": null, "seed": null}, "name": "dropout_97", "inbound_nodes": [[["activation_99", 0, 0, {}]]]}, {"class_name": "Add", "config": {"name": "add_67", "trainable": true, "dtype": "float32"}, "name": "add_67", "inbound_nodes": [[["dropout_97", 0, 0, {}], ["dropout_96", 0, 0, {}]]]}, {"class_name": "Conv1D", "config": {"name": "conv1d_97", "trainable": true, "dtype": "float32", "filters": 12, "kernel_size": [7], "strides": [1], "padding": "same", "data_format": "channels_last", "dilation_rate": [1], "groups": 1, "activation": "linear", "use_bias": true, "kernel_initializer": {"class_name": "HeUniform", "config": {"seed": null}}, "bias_initializer": {"class_name": "Zeros", "config": {}}, "kernel_regularizer": null, "bias_regularizer": null, "activity_regularizer": null, "kernel_constraint": null, "bias_constraint": null}, "name": "conv1d_97", "inbound_nodes": [[["add_67", 0, 0, {}]]]}, {"class_name": "BatchNormalization", "config": {"name": "batch_normalization_101", "trainable": true, "dtype": "float32", "axis": [2], "momentum": 0.99, "epsilon": 0.001, "center": true, "scale": true, "beta_initializer": {"class_name": "Zeros", "config": {}}, "gamma_initializer": {"class_name": "Ones", "config": {}}, "moving_mean_initializer": {"class_name": "Zeros", "config": {}}, "moving_variance_initializer": {"class_name": "Ones", "config": {}}, "beta_regularizer": null, "gamma_regularizer": null, "beta_constraint": null, "gamma_constraint": null}, "name": "batch_normalization_101", "inbound_nodes": [[["conv1d_97", 0, 0, {}]]]}, {"class_name": "Activation", "config": {"name": "activation_100", "trainable": true, "dtype": "float32", "activation": "relu"}, "name": "activation_100", "inbound_nodes": [[["batch_normalization_101", 0, 0, {}]]]}, {"class_name": "Dropout", "config": {"name": "dropout_98", "trainable": true, "dtype": "float32", "rate": 0.1, "noise_shape": null, "seed": null}, "name": "dropout_98", "inbound_nodes": [[["activation_100", 0, 0, {}]]]}, {"class_name": "Add", "config": {"name": "add_68", "trainable": true, "dtype": "float32"}, "name": "add_68", "inbound_nodes": [[["dropout_98", 0, 0, {}], ["dropout_96", 0, 0, {}]]]}, {"class_name": "Conv1D", "config": {"name": "conv1d_98", "trainable": true, "dtype": "float32", "filters": 12, "kernel_size": [7], "strides": [1], "padding": "same", "data_format": "channels_last", "dilation_rate": [1], "groups": 1, "activation": "linear", "use_bias": true, "kernel_initializer": {"class_name": "HeUniform", "config": {"seed": null}}, "bias_initializer": {"class_name": "Zeros", "config": {}}, "kernel_regularizer": null, "bias_regularizer": null, "activity_regularizer": null, "kernel_constraint": null, "bias_constraint": null}, "name": "conv1d_98", "inbound_nodes": [[["add_68", 0, 0, {}]]]}, {"class_name": "BatchNormalization", "config": {"name": "batch_normalization_102", "trainable": true, "dtype": "float32", "axis": [2], "momentum": 0.99, "epsilon": 0.001, "center": true, "scale": true, "beta_initializer": {"class_name": "Zeros", "config": {}}, "gamma_initializer": {"class_name": "Ones", "config": {}}, "moving_mean_initializer": {"class_name": "Zeros", "config": {}}, "moving_variance_initializer": {"class_name": "Ones", "config": {}}, "beta_regularizer": null, "gamma_regularizer": null, "beta_constraint": null, "gamma_constraint": null}, "name": "batch_normalization_102", "inbound_nodes": [[["conv1d_98", 0, 0, {}]]]}, {"class_name": "Activation", "config": {"name": "activation_101", "trainable": true, "dtype": "float32", "activation": "relu"}, "name": "activation_101", "inbound_nodes": [[["batch_normalization_102", 0, 0, {}]]]}, {"class_name": "Dropout", "config": {"name": "dropout_99", "trainable": true, "dtype": "float32", "rate": 0.1, "noise_shape": null, "seed": null}, "name": "dropout_99", "inbound_nodes": [[["activation_101", 0, 0, {}]]]}, {"class_name": "Conv1D", "config": {"name": "conv1d_95", "trainable": true, "dtype": "float32", "filters": 12, "kernel_size": [7], "strides": [1], "padding": "same", "data_format": "channels_last", "dilation_rate": [1], "groups": 1, "activation": "linear", "use_bias": true, "kernel_initializer": {"class_name": "HeUniform", "config": {"seed": null}}, "bias_initializer": {"class_name": "Zeros", "config": {}}, "kernel_regularizer": null, "bias_regularizer": null, "activity_regularizer": null, "kernel_constraint": null, "bias_constraint": null}, "name": "conv1d_95", "inbound_nodes": [[["dropout_96", 0, 0, {}]]]}, {"class_name": "Add", "config": {"name": "D3_net", "trainable": true, "dtype": "float32"}, "name": "D3_net", "inbound_nodes": [[["dropout_99", 0, 0, {}], ["conv1d_95", 0, 0, {}]]]}, {"class_name": "UpSampling1D", "config": {"name": "up_sampling1d_9", "trainable": true, "dtype": "float32", "size": 5}, "name": "up_sampling1d_9", "inbound_nodes": [[["D3_net", 0, 0, {}]]]}, {"class_name": "TensorFlowOpLayer", "config": {"name": "enc_stations_0", "trainable": true, "dtype": "float32", "node_def": {"name": "enc_stations_0", "op": "Reshape", "input": ["functional_3/ts_E0/add", "enc_stations_0/shape"], "attr": {"T": {"type": "DT_FLOAT"}, "Tshape": {"type": "DT_INT32"}}}, "constants": {"1": [64, 4, 6000, 6]}}, "name": "tf_op_layer_enc_stations_0", "inbound_nodes": [[["functional_3", 1, 0, {}]]]}, {"class_name": "Conv1D", "config": {"name": "conv1d_99", "trainable": true, "dtype": "float32", "filters": 6, "kernel_size": [7], "strides": [1], "padding": "same", "data_format": "channels_last", "dilation_rate": [1], "groups": 1, "activation": "linear", "use_bias": true, "kernel_initializer": {"class_name": "HeUniform", "config": {"seed": null}}, "bias_initializer": {"class_name": "Zeros", "config": {}}, "kernel_regularizer": null, "bias_regularizer": null, "activity_regularizer": null, "kernel_constraint": null, "bias_constraint": null}, "name": "conv1d_99", "inbound_nodes": [[["up_sampling1d_9", 0, 0, {}]]]}, {"class_name": "TensorFlowOpLayer", "config": {"name": "Transpose_2", "trainable": true, "dtype": "float32", "node_def": {"name": "Transpose_2", "op": "Transpose", "input": ["enc_stations_0", "Transpose_2/perm"], "attr": {"Tperm": {"type": "DT_INT32"}, "T": {"type": "DT_FLOAT"}}}, "constants": {"1": [0, 2, 3, 1]}}, "name": "tf_op_layer_Transpose_2", "inbound_nodes": [[["tf_op_layer_enc_stations_0", 0, 0, {}]]]}, {"class_name": "BatchNormalization", "config": {"name": "batch_normalization_103", "trainable": true, "dtype": "float32", "axis": [2], "momentum": 0.99, "epsilon": 0.001, "center": true, "scale": true, "beta_initializer": {"class_name": "Zeros", "config": {}}, "gamma_initializer": {"class_name": "Ones", "config": {}}, "moving_mean_initializer": {"class_name": "Zeros", "config": {}}, "moving_variance_initializer": {"class_name": "Ones", "config": {}}, "beta_regularizer": null, "gamma_regularizer": null, "beta_constraint": null, "gamma_constraint": null}, "name": "batch_normalization_103", "inbound_nodes": [[["conv1d_99", 0, 0, {}]]]}, {"class_name": "Conv1D", "config": {"name": "conv1d_69", "trainable": true, "dtype": "float32", "filters": 1, "kernel_size": [1], "strides": [1], "padding": "valid", "data_format": "channels_last", "dilation_rate": [1], "groups": 1, "activation": "linear", "use_bias": true, "kernel_initializer": {"class_name": "GlorotUniform", "config": {"seed": null}}, "bias_initializer": {"class_name": "Zeros", "config": {}}, "kernel_regularizer": null, "bias_regularizer": null, "activity_regularizer": null, "kernel_constraint": null, "bias_constraint": null}, "name": "conv1d_69", "inbound_nodes": [[["tf_op_layer_Transpose_2", 0, 0, {}]]]}, {"class_name": "Activation", "config": {"name": "activation_102", "trainable": true, "dtype": "float32", "activation": "relu"}, "name": "activation_102", "inbound_nodes": [[["batch_normalization_103", 0, 0, {}]]]}, {"class_name": "TensorFlowOpLayer", "config": {"name": "Squeeze_1", "trainable": true, "dtype": "float32", "node_def": {"name": "Squeeze_1", "op": "Squeeze", "input": ["conv1d_69/squeeze_batch_dims/Reshape_1"], "attr": {"T": {"type": "DT_FLOAT"}, "squeeze_dims": {"list": {"i": ["-1"]}}}}, "constants": {}}, "name": "tf_op_layer_Squeeze_1", "inbound_nodes": [[["conv1d_69", 0, 0, {}]]]}, {"class_name": "Dropout", "config": {"name": "dropout_100", "trainable": true, "dtype": "float32", "rate": 0.1, "noise_shape": null, "seed": null}, "name": "dropout_100", "inbound_nodes": [[["activation_102", 0, 0, {}]]]}, {"class_name": "Concatenate", "config": {"name": "concatenate_10", "trainable": true, "dtype": "float32", "axis": -1}, "name": "concatenate_10", "inbound_nodes": [[["tf_op_layer_Squeeze_1", 0, 0, {}], ["dropout_100", 0, 0, {}]]]}, {"class_name": "Conv1D", "config": {"name": "conv1d_100", "trainable": true, "dtype": "float32", "filters": 6, "kernel_size": [7], "strides": [1], "padding": "same", "data_format": "channels_last", "dilation_rate": [1], "groups": 1, "activation": "linear", "use_bias": true, "kernel_initializer": {"class_name": "HeUniform", "config": {"seed": null}}, "bias_initializer": {"class_name": "Zeros", "config": {}}, "kernel_regularizer": null, "bias_regularizer": null, "activity_regularizer": null, "kernel_constraint": null, "bias_constraint": null}, "name": "conv1d_100", "inbound_nodes": [[["concatenate_10", 0, 0, {}]]]}, {"class_name": "BatchNormalization", "config": {"name": "batch_normalization_104", "trainable": true, "dtype": "float32", "axis": [2], "momentum": 0.99, "epsilon": 0.001, "center": true, "scale": true, "beta_initializer": {"class_name": "Zeros", "config": {}}, "gamma_initializer": {"class_name": "Ones", "config": {}}, "moving_mean_initializer": {"class_name": "Zeros", "config": {}}, "moving_variance_initializer": {"class_name": "Ones", "config": {}}, "beta_regularizer": null, "gamma_regularizer": null, "beta_constraint": null, "gamma_constraint": null}, "name": "batch_normalization_104", "inbound_nodes": [[["conv1d_100", 0, 0, {}]]]}, {"class_name": "Activation", "config": {"name": "activation_103", "trainable": true, "dtype": "float32", "activation": "relu"}, "name": "activation_103", "inbound_nodes": [[["batch_normalization_104", 0, 0, {}]]]}, {"class_name": "Dropout", "config": {"name": "dropout_101", "trainable": true, "dtype": "float32", "rate": 0.1, "noise_shape": null, "seed": null}, "name": "dropout_101", "inbound_nodes": [[["activation_103", 0, 0, {}]]]}, {"class_name": "Add", "config": {"name": "add_69", "trainable": true, "dtype": "float32"}, "name": "add_69", "inbound_nodes": [[["dropout_101", 0, 0, {}], ["dropout_101", 0, 0, {}]]]}, {"class_name": "Conv1D", "config": {"name": "conv1d_102", "trainable": true, "dtype": "float32", "filters": 6, "kernel_size": [7], "strides": [1], "padding": "same", "data_format": "channels_last", "dilation_rate": [1], "groups": 1, "activation": "linear", "use_bias": true, "kernel_initializer": {"class_name": "HeUniform", "config": {"seed": null}}, "bias_initializer": {"class_name": "Zeros", "config": {}}, "kernel_regularizer": null, "bias_regularizer": null, "activity_regularizer": null, "kernel_constraint": null, "bias_constraint": null}, "name": "conv1d_102", "inbound_nodes": [[["add_69", 0, 0, {}]]]}, {"class_name": "BatchNormalization", "config": {"name": "batch_normalization_105", "trainable": true, "dtype": "float32", "axis": [2], "momentum": 0.99, "epsilon": 0.001, "center": true, "scale": true, "beta_initializer": {"class_name": "Zeros", "config": {}}, "gamma_initializer": {"class_name": "Ones", "config": {}}, "moving_mean_initializer": {"class_name": "Zeros", "config": {}}, "moving_variance_initializer": {"class_name": "Ones", "config": {}}, "beta_regularizer": null, "gamma_regularizer": null, "beta_constraint": null, "gamma_constraint": null}, "name": "batch_normalization_105", "inbound_nodes": [[["conv1d_102", 0, 0, {}]]]}, {"class_name": "Activation", "config": {"name": "activation_104", "trainable": true, "dtype": "float32", "activation": "relu"}, "name": "activation_104", "inbound_nodes": [[["batch_normalization_105", 0, 0, {}]]]}, {"class_name": "Dropout", "config": {"name": "dropout_102", "trainable": true, "dtype": "float32", "rate": 0.1, "noise_shape": null, "seed": null}, "name": "dropout_102", "inbound_nodes": [[["activation_104", 0, 0, {}]]]}, {"class_name": "Add", "config": {"name": "add_70", "trainable": true, "dtype": "float32"}, "name": "add_70", "inbound_nodes": [[["dropout_102", 0, 0, {}], ["dropout_101", 0, 0, {}]]]}, {"class_name": "Conv1D", "config": {"name": "conv1d_103", "trainable": true, "dtype": "float32", "filters": 6, "kernel_size": [7], "strides": [1], "padding": "same", "data_format": "channels_last", "dilation_rate": [1], "groups": 1, "activation": "linear", "use_bias": true, "kernel_initializer": {"class_name": "HeUniform", "config": {"seed": null}}, "bias_initializer": {"class_name": "Zeros", "config": {}}, "kernel_regularizer": null, "bias_regularizer": null, "activity_regularizer": null, "kernel_constraint": null, "bias_constraint": null}, "name": "conv1d_103", "inbound_nodes": [[["add_70", 0, 0, {}]]]}, {"class_name": "BatchNormalization", "config": {"name": "batch_normalization_106", "trainable": true, "dtype": "float32", "axis": [2], "momentum": 0.99, "epsilon": 0.001, "center": true, "scale": true, "beta_initializer": {"class_name": "Zeros", "config": {}}, "gamma_initializer": {"class_name": "Ones", "config": {}}, "moving_mean_initializer": {"class_name": "Zeros", "config": {}}, "moving_variance_initializer": {"class_name": "Ones", "config": {}}, "beta_regularizer": null, "gamma_regularizer": null, "beta_constraint": null, "gamma_constraint": null}, "name": "batch_normalization_106", "inbound_nodes": [[["conv1d_103", 0, 0, {}]]]}, {"class_name": "Activation", "config": {"name": "activation_105", "trainable": true, "dtype": "float32", "activation": "relu"}, "name": "activation_105", "inbound_nodes": [[["batch_normalization_106", 0, 0, {}]]]}, {"class_name": "Dropout", "config": {"name": "dropout_103", "trainable": true, "dtype": "float32", "rate": 0.1, "noise_shape": null, "seed": null}, "name": "dropout_103", "inbound_nodes": [[["activation_105", 0, 0, {}]]]}, {"class_name": "Add", "config": {"name": "add_71", "trainable": true, "dtype": "float32"}, "name": "add_71", "inbound_nodes": [[["dropout_103", 0, 0, {}], ["dropout_101", 0, 0, {}]]]}, {"class_name": "Conv1D", "config": {"name": "conv1d_104", "trainable": true, "dtype": "float32", "filters": 6, "kernel_size": [7], "strides": [1], "padding": "same", "data_format": "channels_last", "dilation_rate": [1], "groups": 1, "activation": "linear", "use_bias": true, "kernel_initializer": {"class_name": "HeUniform", "config": {"seed": null}}, "bias_initializer": {"class_name": "Zeros", "config": {}}, "kernel_regularizer": null, "bias_regularizer": null, "activity_regularizer": null, "kernel_constraint": null, "bias_constraint": null}, "name": "conv1d_104", "inbound_nodes": [[["add_71", 0, 0, {}]]]}, {"class_name": "BatchNormalization", "config": {"name": "batch_normalization_107", "trainable": true, "dtype": "float32", "axis": [2], "momentum": 0.99, "epsilon": 0.001, "center": true, "scale": true, "beta_initializer": {"class_name": "Zeros", "config": {}}, "gamma_initializer": {"class_name": "Ones", "config": {}}, "moving_mean_initializer": {"class_name": "Zeros", "config": {}}, "moving_variance_initializer": {"class_name": "Ones", "config": {}}, "beta_regularizer": null, "gamma_regularizer": null, "beta_constraint": null, "gamma_constraint": null}, "name": "batch_normalization_107", "inbound_nodes": [[["conv1d_104", 0, 0, {}]]]}, {"class_name": "Activation", "config": {"name": "activation_106", "trainable": true, "dtype": "float32", "activation": "relu"}, "name": "activation_106", "inbound_nodes": [[["batch_normalization_107", 0, 0, {}]]]}, {"class_name": "Dropout", "config": {"name": "dropout_104", "trainable": true, "dtype": "float32", "rate": 0.1, "noise_shape": null, "seed": null}, "name": "dropout_104", "inbound_nodes": [[["activation_106", 0, 0, {}]]]}, {"class_name": "Conv1D", "config": {"name": "conv1d_101", "trainable": true, "dtype": "float32", "filters": 6, "kernel_size": [7], "strides": [1], "padding": "same", "data_format": "channels_last", "dilation_rate": [1], "groups": 1, "activation": "linear", "use_bias": true, "kernel_initializer": {"class_name": "HeUniform", "config": {"seed": null}}, "bias_initializer": {"class_name": "Zeros", "config": {}}, "kernel_regularizer": null, "bias_regularizer": null, "activity_regularizer": null, "kernel_constraint": null, "bias_constraint": null}, "name": "conv1d_101", "inbound_nodes": [[["dropout_101", 0, 0, {}]]]}, {"class_name": "Add", "config": {"name": "D4_net", "trainable": true, "dtype": "float32"}, "name": "D4_net", "inbound_nodes": [[["dropout_104", 0, 0, {}], ["conv1d_101", 0, 0, {}]]]}, {"class_name": "Bidirectional", "config": {"name": "bidirectional", "trainable": true, "dtype": "float32", "layer": {"class_name": "LSTM", "config": {"name": "lstm", "trainable": true, "dtype": "float32", "return_sequences": true, "return_state": false, "go_backwards": false, "stateful": false, "unroll": false, "time_major": false, "units": 2, "activation": "tanh", "recurrent_activation": "sigmoid", "use_bias": true, "kernel_initializer": {"class_name": "GlorotUniform", "config": {"seed": null}}, "recurrent_initializer": {"class_name": "Orthogonal", "config": {"gain": 1.0, "seed": null}}, "bias_initializer": {"class_name": "Zeros", "config": {}}, "unit_forget_bias": true, "kernel_regularizer": null, "recurrent_regularizer": null, "bias_regularizer": null, "activity_regularizer": null, "kernel_constraint": null, "recurrent_constraint": null, "bias_constraint": null, "dropout": 0.1, "recurrent_dropout": 0.0, "implementation": 2}}, "merge_mode": "concat"}, "name": "bidirectional", "inbound_nodes": [[["D4_net", 0, 0, {}]]]}, {"class_name": "Bidirectional", "config": {"name": "bidirectional_1", "trainable": true, "dtype": "float32", "layer": {"class_name": "LSTM", "config": {"name": "lstm_1", "trainable": true, "dtype": "float32", "return_sequences": true, "return_state": false, "go_backwards": false, "stateful": false, "unroll": false, "time_major": false, "units": 2, "activation": "tanh", "recurrent_activation": "sigmoid", "use_bias": true, "kernel_initializer": {"class_name": "GlorotUniform", "config": {"seed": null}}, "recurrent_initializer": {"class_name": "Orthogonal", "config": {"gain": 1.0, "seed": null}}, "bias_initializer": {"class_name": "Zeros", "config": {}}, "unit_forget_bias": true, "kernel_regularizer": null, "recurrent_regularizer": null, "bias_regularizer": null, "activity_regularizer": null, "kernel_constraint": null, "recurrent_constraint": null, "bias_constraint": null, "dropout": 0.1, "recurrent_dropout": 0.0, "implementation": 2}}, "merge_mode": "concat"}, "name": "bidirectional_1", "inbound_nodes": [[["D4_net", 0, 0, {}]]]}, {"class_name": "Conv1D", "config": {"name": "BiLSTM_rfocc", "trainable": true, "dtype": "float32", "filters": 2, "kernel_size": [1], "strides": [1], "padding": "valid", "data_format": "channels_last", "dilation_rate": [1], "groups": 1, "activation": "linear", "use_bias": true, "kernel_initializer": {"class_name": "GlorotUniform", "config": {"seed": null}}, "bias_initializer": {"class_name": "Zeros", "config": {}}, "kernel_regularizer": null, "bias_regularizer": null, "activity_regularizer": null, "kernel_constraint": null, "bias_constraint": null}, "name": "BiLSTM_rfocc", "inbound_nodes": [[["bidirectional", 0, 0, {}]]]}, {"class_name": "Conv1D", "config": {"name": "BiLSTM_eqocc", "trainable": true, "dtype": "float32", "filters": 2, "kernel_size": [1], "strides": [1], "padding": "valid", "data_format": "channels_last", "dilation_rate": [1], "groups": 1, "activation": "linear", "use_bias": true, "kernel_initializer": {"class_name": "GlorotUniform", "config": {"seed": null}}, "bias_initializer": {"class_name": "Zeros", "config": {}}, "kernel_regularizer": null, "bias_regularizer": null, "activity_regularizer": null, "kernel_constraint": null, "bias_constraint": null}, "name": "BiLSTM_eqocc", "inbound_nodes": [[["bidirectional_1", 0, 0, {}]]]}, {"class_name": "BatchNormalization", "config": {"name": "rfocc", "trainable": true, "dtype": "float32", "axis": [2], "momentum": 0.99, "epsilon": 0.001, "center": true, "scale": true, "beta_initializer": {"class_name": "Zeros", "config": {}}, "gamma_initializer": {"class_name": "Ones", "config": {}}, "moving_mean_initializer": {"class_name": "Zeros", "config": {}}, "moving_variance_initializer": {"class_name": "Ones", "config": {}}, "beta_regularizer": null, "gamma_regularizer": null, "beta_constraint": null, "gamma_constraint": null}, "name": "rfocc", "inbound_nodes": [[["BiLSTM_rfocc", 0, 0, {}]]]}, {"class_name": "BatchNormalization", "config": {"name": "eqocc", "trainable": true, "dtype": "float32", "axis": [2], "momentum": 0.99, "epsilon": 0.001, "center": true, "scale": true, "beta_initializer": {"class_name": "Zeros", "config": {}}, "gamma_initializer": {"class_name": "Ones", "config": {}}, "moving_mean_initializer": {"class_name": "Zeros", "config": {}}, "moving_variance_initializer": {"class_name": "Ones", "config": {}}, "beta_regularizer": null, "gamma_regularizer": null, "beta_constraint": null, "gamma_constraint": null}, "name": "eqocc", "inbound_nodes": [[["BiLSTM_eqocc", 0, 0, {}]]]}, {"class_name": "Activation", "config": {"name": "rf_occ_act", "trainable": true, "dtype": "float32", "activation": "softmax"}, "name": "rf_occ_act", "inbound_nodes": [[["rfocc", 0, 0, {}]]]}, {"class_name": "Activation", "config": {"name": "eq_occ_act", "trainable": true, "dtype": "float32", "activation": "softmax"}, "name": "eq_occ_act", "inbound_nodes": [[["eqocc", 0, 0, {}]]]}, {"class_name": "TensorFlowOpLayer", "config": {"name": "eqpick_output", "trainable": true, "dtype": "float32", "node_def": {"name": "eqpick_output", "op": "Reshape", "input": ["functional_3/eq_picker/truediv", "eqpick_output/shape"], "attr": {"Tshape": {"type": "DT_INT32"}, "T": {"type": "DT_FLOAT"}}}, "constants": {"1": [64, 4, 6000, 3]}}, "name": "tf_op_layer_eqpick_output", "inbound_nodes": [[["functional_3", 1, 6, {}]]]}, {"class_name": "TensorFlowOpLayer", "config": {"name": "eqmask_output", "trainable": true, "dtype": "float32", "node_def": {"name": "eqmask_output", "op": "Reshape", "input": ["functional_3/eq_detector/truediv", "eqmask_output/shape"], "attr": {"Tshape": {"type": "DT_INT32"}, "T": {"type": "DT_FLOAT"}}}, "constants": {"1": [64, 4, 6000, 2]}}, "name": "tf_op_layer_eqmask_output", "inbound_nodes": [[["functional_3", 1, 7, {}]]]}, {"class_name": "TensorFlowOpLayer", "config": {"name": "rfmask_output", "trainable": true, "dtype": "float32", "node_def": {"name": "rfmask_output", "op": "Reshape", "input": ["functional_3/rf_detector/truediv", "rfmask_output/shape"], "attr": {"Tshape": {"type": "DT_INT32"}, "T": {"type": "DT_FLOAT"}}}, "constants": {"1": [64, 4, 6000, 2]}}, "name": "tf_op_layer_rfmask_output", "inbound_nodes": [[["functional_3", 1, 8, {}]]]}], "input_layers": [["input_1", 0, 0], ["input_2", 0, 0]], "output_layers": [["rf_occ_act", 0, 0], ["eq_occ_act", 0, 0], ["tf_op_layer_eqpick_output", 0, 0], ["tf_op_layer_eqmask_output", 0, 0], ["tf_op_layer_rfmask_output", 0, 0]]}, "keras_version": "2.4.0", "backend": "tensorflow"}